weight/lstm_model.pth (torch, 340898 bytes, 41 tensors)

lstm.weight_ih_l0 f4 [128, 13]
0	0x3e0ff861	0.14059593
1	0xbc89c231	-0.01681623
2	0xbb84d2af	-0.0040534358
3	0x3d8cc843	0.068741344
4	0xbdaf60b4	-0.085633665
5	0x3e159d71	0.1461084
6	0x3d528c40	0.051403284
7	0xbd08f6f4	-0.033438638
8	0xbdc508eb	-0.096208416
9	0xbca6686a	-0.02031346
10	0xbcceac3f	-0.025228618
11	0xbdc9be60	-0.09850764
12	0xbd39255e	-0.04520165
13	0xbd844344	-0.064581424
14	0x3d97d8eb	0.07414421
15	0xbe01e174	-0.1268366
16	0xbd2b3e80	-0.04180765
17	0x3d040e78	0.03224036
18	0xbda6cb41	-0.08144236
19	0xbcbcbaba	-0.023038257
20	0xbde35b14	-0.11101356
21	0xbe0361d3	-0.12830286
22	0xbe2b06b7	-0.1670178
23	0xbd248bcd	-0.040172387
24	0x3e277d1a	0.16356316
25	0xbd531228	-0.051530987
26	0x3d00b462	0.031422026
27	0x3e09b29f	0.13447045
28	0xbdf9a26d	-0.121891834
29	0x3c4d5dc1	0.01253456
30	0x3e0d4389	0.13795294
31	0x3be16eb8	0.006879654
32	0xbe2dffdc	-0.16992134
33	0x3d996f5d	0.07491944
34	0x3e11c6fc	0.14236063
35	0x3e107830	0.14108348
36	0xbcf939c3	-0.03042305
37	0xbe176a1a	-0.14786568
38	0x3c93f071	0.018058987
39	0x3dacf259	0.08444662
40	0x3e166fd0	0.1469109
41	0x3de96f6e	0.11398207
42	0xbcb26d46	-0.021780621
43	0xbe3490ed	-0.1763341
44	0xbd38a332	-0.04507751
45	0x3baa106e	0.005189947
46	0xbb920628	-0.0044563003
47	0xbe1f6007	-0.15563975
48	0x3e2d0051	0.16894652
49	0xbc1daa68	-0.009623148
50	0x3c2f68f4	0.010706175
51	0xbde94394	-0.11389843
52	0x3d334e86	0.043776058
53	0x3d89950e	0.06717883
54	0x3da36a4c	0.07979259
55	0x3dae7044	0.08517507
56	0x3deb6b06	0.114950225
57	0x3e26cf70	0.16290069
58	0x3da6381f	0.08116173
59	0x3e1348c5	0.14383228
60	0xbe05454f	-0.1301472
61	0xbc97f58d	-0.018549705
62	0x3e30919a	0.17243043
63	0x3e235727	0.15951215
64	0xbe159265	-0.14606626
65	0xbc9e85c4	-0.019350894
66	0xbcb01475	-0.02149413
67	0x3ce92edd	0.028464729
68	0xbd407cb8	-0.04699394
69	0x3d908c73	0.070580386
70	0xbdc6b58c	-0.09702596
71	0x3e1b667c	0.15175813
72	0x3cc5beaa	0.024138767
73	0xbdefbf28	-0.11706382
74	0xbdc57ca7	-0.09642916
75	0xbd7d7690	-0.061880648
76	0xbd68870f	-0.056769427
77	0xbda62ec0	-0.081143856
78	0xbdbb8eaa	-0.091580704
79	0x3dbadf8b	0.09124669
80	0xbca4cd48	-0.020117417
81	0xbe0898ad	-0.13339491
82	0x3d72d9e0	0.059289813
83	0x3dff4e99	0.12466163
84	0xbd03b438	-0.032154292
85	0xbe27a9a6	-0.1637331
86	0x3e270f9e	0.16314551
87	0xbe0b36d9	-0.13595141
88	0xbdae7cfa	-0.08519931
89	0xbc98910b	-0.01862385
90	0x3e29ed79	0.16594495
91	0x3d67c321	0.056582574
92	0x3e1fb947	0.15598021
93	0x3deb6991	0.114947446
94	0x3e1e1344	0.15437037
95	0xbc30b567	-0.010785437
96	0xbe09d1b9	-0.13458909
97	0xbe32e285	-0.17469223
98	0xbc3c3a4b	-0.0114885075
99	0x3e188825	0.14895685
100	0x3daba15b	0.083803855
101	0x3e25aef4	0.1618002
102	0xbe27aa2c	-0.16373509
103	0xbe233fa2	-0.15942243
104	0xbc44724e	-0.011990143
105	0x3d937acd	0.07201157
106	0x3e2b1c10	0.16709924
107	0xbdfccf34	-0.12344208
108	0x3d552934	0.052041247
109	0x3cb8b5ed	0.022547686
110	0x3d8165f6	0.06318276
111	0x3ca438fd	0.020046705
112	0x3da082d5	0.07837454
113	0xbd8d8e47	-0.06911903
114	0xbe1b9119	-0.15192069
115	0x3cdc2242	0.026871804
116	0x3d23b7e2	0.039970286
117	0xbd9171e8	-0.07101804
118	0xbdbc5ad2	-0.0919701
119	0x3bb66e76	0.005567367
120	0x3d0e33ca	0.03471736
121	0x3d7da411	0.061924044
122	0x3e2cf719	0.16891135
123	0xbdeec401	-0.116584785
124	0xbd795c5f	-0.060879108
125	0xbd06c7cd	-0.03290539
126	0xbd68a80c	-0.056800887
127	0x3e017cbb	0.12645237
128	0xbe17169d	-0.1475472
129	0x3e19b3c2	0.15009978
130	0x3c9c64bb	0.019091
131	0xbd45afc7	-0.048263337
132	0x3dbbb905	0.09166149
133	0xbcacfeb3	-0.021117544
134	0x3c6e2edc	0.014537539
135	0xbb86daa8	-0.0041154213
136	0x3c97faf1	0.018552275
137	0x3ce8a6d1	0.028399857
138	0x3e30c45a	0.17262402
139	0xbe13acaf	-0.14421342
140	0x3de10c82	0.10988714
141	0xbc81cc9f	-0.015844641
142	0x3db15606	0.08658986
143	0x3d7df29e	0.061998956
144	0x3e18680c	0.1488344
145	0x3dabf749	0.08396775
146	0xbd8038c4	-0.06260827
147	0xbe11c1d5	-0.14234097
148	0xbe14fd1d	-0.1454968
149	0xbc63b091	-0.013897077
150	0x3e1d1f40	0.15343952
151	0xbdd72ad3	-0.10506215
152	0xbcad9307	-0.021188272
153	0x3e0d29ba	0.13785449
154	0xbd8008e3	-0.06251695
155	0x3de6bf78	0.112669885
156	0x3dd6c4fe	0.10486792
157	0xbdfd8379	-0.12378592
158	0x3dc28f64	0.09500006
159	0xbd80b3fd	-0.0628433
160	0x3b226682	0.0024780338
161	0x3dc5d045	0.09658865
162	0xbe237f0a	-0.1596643
163	0x3e1b6ad8	0.15177476
164	0x3d987450	0.0744406
165	0xbe25f48d	-0.1620657
166	0x3d914a93	0.07094302
167	0xbd8785b0	-0.06617296
168	0xbe234f48	-0.15948212
169	0x3d4d8d07	0.050183322
170	0x3dd9486b	0.10609516
171	0xbe1bc743	-0.15212731
172	0xbdbae0dc	-0.0912492
173	0xbce5e71b	-0.028064301
174	0x3e33b311	0.17548777
175	0xbe0316d8	-0.12801683
176	0xbcd96e6f	-0.026541917
177	0x3d310f2b	0.043227356
178	0x3de5823f	0.11206483
179	0xbe11cde9	-0.14238705
180	0xbd660f91	-0.05616719
181	0xbd8d2600	-0.068920135
182	0x3e085737	0.1331452
183	0x3dc53480	0.09629154
184	0xbd2fb6dc	-0.042898998
185	0xbd67876e	-0.05652564
186	0xbe060cc9	-0.13090815
187	0x3caff67b	0.021479836
188	0xbd167b9e	-0.036738984
189	0xbdd84052	-0.10559143
190	0xbda0c8c3	-0.07850792
191	0x3d05843b	0.032596808
192	0x3d042fc5	0.03227212
193	0x3d02b50a	0.031910934
194	0x3e0e1dad	0.13878508
195	0xbe04325a	-0.12909833
196	0x3d8a7441	0.06760455
197	0xbdd5bdef	-0.104366176
198	0xbd842b67	-0.06453591
199	0x3de04b24	0.10951832
200	0xbe307cfa	-0.17235175
201	0xbd1988ba	-0.03748391
202	0x3d6dbc2e	0.05804079
203	0xbd279fd2	-0.0409239
204	0x3dfb2925	0.12263707
205	0xbe28f296	-0.16498789
206	0xbde047ec	-0.10951218
207	0xbdda2e3e	-0.10653351
208	0xbe2d3241	-0.16913702
209	0xbe3396f9	-0.1753806
210	0xbcd40f8c	-0.02588632
211	0x3e086b9f	0.13322304
212	0x3d0a0aa5	0.033701558
213	0x3d496aa8	0.04917398
214	0xbc16b7a5	-0.009199058
215	0xbd94f398	-0.07273024
216	0xbd9951b0	-0.07486284
217	0x3d6511fe	0.05592536
218	0xbd4966fe	-0.049170487
219	0x3e05f774	0.13082677
220	0x3c9a84e7	0.0188622
221	0x3e18e069	0.14929356
222	0xbc5432a4	-0.012951527
223	0x3e27b9af	0.16379426
224	0xbd072654	-0.032995537
225	0xbdc30c6c	-0.09523854
226	0x3df6f7a8	0.120589554
227	0x3da70dc9	0.08156926
228	0x3d0e9f72	0.034820028
229	0xbcc5435d	-0.024079973
230	0xbd025b6a	-0.03182546
231	0xbe1d6329	-0.15369858
232	0xbcb23e71	-0.02175829
233	0x3db7a0e6	0.08966236
234	0xbe0ec505	-0.13942344
235	0x3cf49371	0.029855462
236	0xbd12aef0	-0.035811365
237	0x3e24456f	0.16042112
238	0xbe01f639	-0.12691583
239	0xbdf4724b	-0.11935862
240	0x3d1af689	0.03783277
241	0xbe1f3869	-0.15548863
242	0x3e25b803	0.16183476
243	0xbdd1928f	-0.10233032
244	0xbcdadb66	-0.026715945
245	0xbe28d751	-0.16488387
246	0x3df18429	0.11792786
247	0xbe1dbc63	-0.15403895
248	0x3d1ee1a6	0.038789414
249	0xbe034a24	-0.12821251
250	0xbcb3b1ab	-0.021935305
251	0x3df2ad0e	0.11849414
252	0x3e1450a7	0.14483891
253	0xbd3fb6b4	-0.0468051
254	0x3d52bd9e	0.051450364
255	0xbdba3066	-0.090912625

lstm.weight_hh_l0 f4 [128, 32]
0	0xbd61ffa8	-0.055175453
1	0x3dbbbae3	0.09166505
2	0xbcad7557	-0.021174116
3	0x3c84b743	0.016200667
4	0xbe23dc5e	-0.16002032
5	0xbe1c4066	-0.15258941
6	0xbdaece5f	-0.08535456
7	0xbdf88653	-0.12134995
8	0x3d605033	0.054763984
9	0xbd0e5bda	-0.034755565
10	0xbd02c8dd	-0.03192984
11	0x3d97552d	0.07389293
12	0xbde2a1cc	-0.110660166
13	0x3c9cec18	0.019155547
14	0xbd13e3dc	-0.036105976
15	0xbe2cc107	-0.16870509
16	0xbd485249	-0.0489066
17	0xbdd866d7	-0.1056649
18	0x3e01898a	0.12650123
19	0x3dfdde3d	0.12395904
20	0x3e2f50c9	0.17120661
21	0xbdcec91d	-0.10096953
22	0xbd0957cb	-0.03353099
23	0x3d89d6af	0.06730401
24	0xbcaf08ed	-0.02136656
25	0x3cfebc74	0.03109572
26	0x3daa06f7	0.0830211
27	0x3c5dfe23	0.01354936
28	0xbd7c9fe7	-0.061675932
29	0xbc7f46e3	-0.015580866
30	0x3c23ab8b	0.0099896295
31	0x3d61f30c	0.05516343
32	0x3db2487f	0.08705234
33	0xbd05bc9c	-0.032650575
34	0xbe0f2e24	-0.13982445
35	0x3deb6162	0.11493184
36	0xbd1564fb	-0.036473256
37	0x3e1fc99a	0.15604249
38	0x3cbbe633	0.022936916
39	0x3e05a791	0.13052203
40	0xbd044480	-0.03229189
41	0x3c28fef3	0.010314691
42	0xbd87956b	-0.06620296
43	0xbe065c93	-0.13121252
44	0xbd8d8fee	-0.06912218
45	0xbcc05f6f	-0.023483006
46	0xbd401e46	-0.04690387
47	0x3dec8c1e	0.11550163
48	0xbdc03a01	-0.09386063
49	0x3cfce34d	0.030870104
50	0x3d9cbbcf	0.07653009
51	0xbce051c9	-0.027382748
52	0x3dc14317	0.094366245
53	0xbbf4d4b4	-0.0074716453
54	0xbe2e20ee	-0.17004749
55	0x3e0e4b15	0.13895829
56	0xbe201e5b	-0.1563658
57	0x3cbbf342	0.022943143
58	0x3df50732	0.11964263
59	0xbe0ae0e0	-0.13562346
60	0xbd852cf7	-0.06502717
61	0x3e07dd34	0.13267976
62	0xbde78606	-0.1130486
63	0xbda4d00f	-0.080474965
64	0x3d825318	0.06363505
65	0xbe2153be	-0.15754601
66	0x3c862129	0.016373234
67	0x3d22497d	0.039620865
68	0x3c034883	0.008012894
69	0xbdda76f0	-0.10667217
70	0xbe07e333	-0.13270263
71	0x3e25a810	0.16177392
72	0x3e29adc0	0.16570187
73	0xbe00fe5b	-0.12597029
74	0x3d0f35dc	0.034963474
75	0x3e0391d3	0.12848596
76	0x3df319e1	0.118701704
77	0xbdd1c9a5	-0.10243539
78	0x3da7493f	0.081682675
79	0x3d891cfe	0.06694983
80	0xbe013a18	-0.12619817
81	0x3d123a5d	0.03570019
82	0xbe03f132	-0.12884977
83	0x3defaf70	0.11703384
84	0xbd23b828	-0.039970547
85	0xbe1d8d21	-0.15385868
86	0x3e1ec276	0.15503868
87	0x3de2c941	0.110735424
88	0x3af397b6	0.0018584642
89	0xbcc3fcd4	-0.023924269
90	0xbdfce8f8	-0.12349123
91	0x3e12bffb	0.14331047
92	0xbe03aec1	-0.12859632
93	0xbe0d1531	-0.13777615
94	0x3d582c74	0.05277677
95	0x3cb58ddd	0.022162372
96	0x3d7209d3	0.0590914
97	0x3dfc0371	0.12305344
98	0x3c47ee4d	0.012202811
99	0x3e291b62	0.16514352
100	0xbe14e92f	-0.14542077
101	0xbcaa7bf7	-0.020811064
102	0xbd2aa40e	-0.04166036
103	0xbbf540e0	-0.0074845403
104	0x3e0ac599	0.1355194
105	0x3e1ef095	0.15521462
106	0x3e323a34	0.17405015
107	0x3e35a520	0.17738771
108	0xbd835c40	-0.0641408
109	0x3c7ba6ec	0.0153596215
110	0xbd2cfc3e	-0.042232744
111	0x3d433d07	0.047665622
112	0xbe1daec7	-0.15398704
113	0xbdac69b3	-0.08418598
114	0x3dbcbdd9	0.09215898
115	0xbd9f770f	-0.077863805
116	0xbb5008f4	-0.0031743618
117	0xbb23b384	-0.0024978826
118	0xbe231582	-0.15926173
119	0xbcf35408	-0.029703155
120	0x3df8b362	0.121435896
121	0x3dc34124	0.09533909
122	0xbd93fb9e	-0.072257265
123	0xbdd3503e	-0.10318039
124	0x3e24e3a7	0.16102467
125	0x3dbfea0d	0.093708135
126	0x3d3992b4	0.045305923
127	0x3d84f749	0.064924784
128	0x3e20e709	0.15713133
129	0x3d23ca24	0.0399877
130	0x3def2abd	0.116780736
131	0x3e14b7b7	0.14523207
132	0xbc4902eb	-0.012268762
133	0xbde9694d	-0.11397038
134	0x3e0f3596	0.13985285
135	0xbc4628e0	-0.012094706
136	0xbdd6c94a	-0.104876116
137	0xbdcabc26	-0.09899168
138	0x3d97e364	0.07416418
139	0x3e29cb9e	0.1658158
140	0x3e2175fa	0.1576766
141	0xbe1a9d0e	-0.15098974
142	0x3e0a3802	0.13497928
143	0x3db555e3	0.08854272
144	0xbdc00259	-0.09375448
145	0x3e291c3d	0.16514678
146	0x3e257ac0	0.16160107
147	0xbdf8f936	-0.12156908
148	0xbe1a0922	-0.15042546
149	0x3d211999	0.039331052
150	0xbc0def4d	-0.008663011
151	0xbdaa51c5	-0.083163776
152	0xbd23c3a8	-0.039981514
153	0x3de8fbdb	0.113761626
154	0x3d62d9d0	0.055383503
155	0xbe277179	-0.1635188
156	0xbd9db779	-0.0770101
157	0x3de200a9	0.11035282
158	0x3e0435d6	0.12911162
159	0xbde7e83f	-0.11323594
160	0xbb508b9c	-0.0031821495
161	0x3cbdc6c7	0.023166073
162	0xbe093374	-0.13398534
163	0xbc7b18e6	-0.0153257605
164	0x3c13abcb	0.009013127
165	0x3c441bf6	0.011969557
166	0xbe1c4db5	-0.15264018
167	0x3d2b042c	0.041752025
168	0xbcba9327	-0.022775246
169	0xbde420e4	-0.11139086
170	0xbe0c5cd4	-0.13707286
171	0x3ccf45a7	0.025301768
172	0x3df99dce	0.12188302
173	0xbe304bb5	-0.1721638
174	0xbe2089c4	-0.15677553
175	0x3e1a05a6	0.15041217
176	0x3deb725b	0.11496421
177	0x3c120e37	0.008914522
178	0xbc94c746	-0.018161427
179	0xbce55664	-0.027995296
180	0x3dc52317	0.096258335
181	0xbc530207	-0.012878901
182	0xbd61a46e	-0.055088453
183	0x3e051554	0.12996417
184	0x3de5635a	0.112005904
185	0xbe0a773b	-0.13522045
186	0xbe27627e	-0.16346166
187	0xbd83f0b1	-0.064423926
188	0xbe0e1fe4	-0.13879353
189	0xbdc8d33b	-0.09805914
190	0x3dfab832	0.12242164
191	0x3e05b030	0.13055491
192	0x3cc01a50	0.023450047
193	0x3d8da9ac	0.06917128
194	0x3dd500df	0.10400557
195	0xbd8fe43d	-0.07025955
196	0xbd2aa010	-0.041656554
197	0xbd97e27d	-0.07416246
198	0xbdbc0f93	-0.09182658
199	0x3e06e2b7	0.13172422
200	0xbdc00034	-0.09375039
201	0x3e0a8040	0.13525486
202	0xbe162664	-0.14663082
203	0xbdff3717	-0.124616794
204	0xbe13ee21	-0.14446308
205	0x3dc682ef	0.09692942
206	0xbe2e5157	-0.17023216
207	0x3e2952d2	0.165355
208	0xbe1b7ddb	-0.15184729
209	0xbde8421f	-0.113407366
210	0xbcbbae64	-0.022910304
211	0x3e23f552	0.16011551
212	0xbe11a5be	-0.14223382
213	0x3d0f4b2b	0.034983795
214	0x3bec7c14	0.0072169397
215	0xbd915780	-0.070967674
216	0xbda54c70	-0.0807122
217	0xbc65b76a	-0.01402078
218	0x3e2d17f8	0.16903675
219	0x3df4361d	0.11924384
220	0x3d04e2ac	0.032442734
221	0xbcc18e9e	-0.023627575
222	0x3c332b14	0.010935564
223	0x3dfe1f3a	0.124083
224	0xbc9e4403	-0.01931954
225	0x3dfcea1c	0.1234934
226	0xbdca1d3c	-0.09868857
227	0xbd3f3b93	-0.046687674
228	0xbe0dc75c	-0.13845581
229	0xbe2b8a6d	-0.16752024
230	0xbccdf7fc	-0.025142662
231	0x3e0ad7ea	0.13558927
232	0xbd9f952f	-0.077921264
233	0x3d37ea00	0.044900894
234	0x3d72e35f	0.05929887
235	0x3e21374f	0.15743755
236	0xbbbb03b7	-0.00570723
237	0x3d709da2	0.05874408
238	0xbdd178c8	-0.10228115
239	0x3ab0bac7	0.0013483398
240	0xbd949a2a	-0.07255967
241	0x3e2b41ca	0.16724315
242	0xbd340d5e	-0.04395806
243	0xbd1535b5	-0.036428172
244	0x3df2b061	0.11850048
245	0xbdc55673	-0.096356295
246	0x3e057fae	0.13036987
247	0xbdbba971	-0.09163178
248	0x3e0cdeb0	0.13756824
249	0xbdb87b17	-0.090078525
250	0x3e2287a7	0.1587206
251	0x3e28fce9	0.16502728
252	0xbe02b713	-0.1276515
253	0x3d82deec	0.06390175
254	0x3cec098b	0.028813144
255	0xbde1e1ee	-0.11029421

lstm.bias_ih_l0 f4 [128]
0	0x3d8dfa7e	0.06932543
1	0x3e26b3ac	0.16279477
2	0xbe2e2e7b	-0.17009918
3	0xbe0bd74d	-0.1365635
4	0xbdb64228	-0.08899337
5	0x3cd59634	0.026072599
6	0xbd88362d	-0.06650958
7	0xbd8e11b2	-0.06936969
8	0xbcc9e68f	-0.024646072
9	0x3df025ed	0.11725984
10	0x3daa8810	0.08326733
11	0xbca36852	-0.019947205
12	0xbb2861ef	-0.0025693139
13	0xbb719caf	-0.0036867072
14	0x3db1355e	0.08652757
15	0xbdc491b6	-0.09598105
16	0xbe2a8994	-0.16654044
17	0xbcf28305	-0.02960349
18	0x3cd6f896	0.026241582
19	0x3d284fe7	0.041091826
20	0x3d0996dc	0.033591136
21	0x3c7a103e	0.0152626615
22	0x3d6f4ad7	0.058420982
23	0x3d40801d	0.04699718
24	0xbd9765de	-0.073924765
25	0xbdbe8f75	-0.09304706
26	0x3d748a77	0.059702363
27	0x3d581a90	0.052759707
28	0xbdc51f8c	-0.09625158
29	0x3c81eb0b	0.015859148
30	0xbd541c74	-0.051784948
31	0x3e04dd2d	0.12974997
32	0xbdc895d0	-0.097941995
33	0x3db347c1	0.0875392
34	0xbd876993	-0.066119336
35	0x3c6618fd	0.014044044
36	0x3dc95da0	0.09832311
37	0x3e31e0ba	0.17370883
38	0x3bc8ff9d	0.006133987
39	0xbd19344c	-0.03740339
40	0xbdcad861	-0.09904552
41	0xbe30adb4	-0.17253762
42	0xbe035862	-0.12826684
43	0xbe058537	-0.13039099
44	0x3cb6ea87	0.022328628
45	0xbe1fee83	-0.15618329
46	0xbd3a353a	-0.045460917
47	0xbc4f59e3	-0.012655708
48	0xbe01431d	-0.12623258
49	0x3dc5c4b8	0.09656662
50	0x3c2cb38b	0.010540853
51	0x3c790f76	0.01520144
52	0x3e308d37	0.17241369
53	0xbc86ae42	-0.016440514
54	0xbd6cd875	-0.057823617
55	0x3d9fc5d3	0.07801404
56	0xbe25e73a	-0.16201487
57	0xbd4c3146	-0.04985168
58	0xbd3887c3	-0.045051347
59	0xbd835c45	-0.064140834
60	0x3da2b08d	0.07943831
61	0x3d7594e7	0.059956457
62	0xbe3324cb	-0.17494504
63	0xbe028cca	-0.1274902
64	0xbe0598fe	-0.13046643
65	0x3df68218	0.12036532
66	0xbe14bb1d	-0.14524503
67	0x3de69b4b	0.112600885
68	0x3bb8cd46	0.005639705
69	0x3e03f147	0.12885009
70	0xbccf3f05	-0.025298605
71	0x3e0412bf	0.12897776
72	0x3cf1ec79	0.029531704
73	0xbc5e53d6	-0.013569793
74	0x3bf9c4a6	0.0076223193
75	0xbe2a438c	-0.1662733
76	0x3dafc22f	0.085819595
77	0x3dbc3f7b	0.091917954
78	0x3e08c1aa	0.13355127
79	0xbbc3a9c1	-0.005971164
80	0xbd0cbc3a	-0.034359194
81	0x3e242e1b	0.16033213
82	0xbd99cfdb	-0.075103484
83	0x3d7e0ca1	0.062023763
84	0xbd3fc59d	-0.046819318
85	0x3dec56db	0.11540004
86	0xbca05388	-0.01957108
87	0x3de31ae5	0.11089114
88	0xbe0271af	-0.1273868
89	0xbdfc1311	-0.12308324
90	0x3dae2cd8	0.08504647
91	0xbd77bb1f	-0.060481187
92	0xbd7810e1	-0.060562972
93	0xb9cdbaa5	-0.00039239708
94	0x3d254b54	0.04035504
95	0x3c8b0be8	0.01697345
96	0x3e23e8f4	0.16006833
97	0xbdb067e9	-0.08613569
98	0x3d42b748	0.047538072
99	0x3d373abe	0.044733755
100	0x3db31b16	0.087454006
101	0x3dc26607	0.094921164
102	0x3ccc7bae	0.024961319
103	0x3e1de51f	0.15419434
104	0xbde7e943	-0.11323788
105	0xbe2d3f1f	-0.1691861
106	0x3db0c7a7	0.08631831
107	0x3e0bfad6	0.13669905
108	0xbc0f77d5	-0.0087565975
109	0xbdfd1597	-0.123576336
110	0xbdb18757	-0.08668392
111	0xbdedf414	-0.1161882
112	0x3c1df77b	0.0096415235
113	0xbcd7dd6f	-0.026350705
114	0x3da01e4a	0.07818277
115	0x3d852ea7	0.06503039
116	0xbd78ab8e	-0.060710482
117	0xbe18ebf6	-0.14933762
118	0x3d6ce76f	0.0578379
119	0xbe14ef67	-0.1454445
120	0xbe1f84f0	-0.15578055
121	0x3d48c234	0.04901333
122	0x3db1b4c6	0.08677058
123	0x3db702e4	0.08936098
124	0x3bdbc96a	0.00670736
125	0xbdf279d1	-0.11839641
126	0x3d0f8a3c	0.03504394
127	0xbd1c5e32	-0.03817577

lstm.bias_hh_l0 f4 [128]
0	0x3cb9bd15	0.02267317
1	0xbc59e3d3	-0.013298946
2	0x3e252e56	0.16130957
3	0xbca2b744	-0.019862778
4	0xbbccb2df	-0.006246909
5	0xbca20eba	-0.019782413
6	0x3de2df65	0.110777654
7	0xbcf035a4	-0.029322453
8	0xbba90f94	-0.0051593278
9	0xbdbc3f9e	-0.091918215
10	0xbc9ec263	-0.0193798
11	0x3df5ead6	0.12007682
12	0x3c965add	0.018353874
13	0xbdcae27f	-0.09906482
14	0x3cde2f4a	0.027122159
15	0x3dfbd54e	0.12296544
16	0x3d823b5d	0.06358979
17	0x3a8d3ab9	0.0010774947
18	0x3db57f2c	0.08862147
19	0xbd38d188	-0.0451217
20	0x3c97e1d9	0.01854031
21	0x3dedd191	0.11612237
22	0xbdcbc751	-0.09950126
23	0x3db1d7dd	0.08683751
24	0xbd3214e7	-0.043476965
25	0xbe35c5e7	-0.17751275
26	0xbe1f3150	-0.15546155
27	0x3d81a297	0.0632984
28	0x3df1e212	0.118106976
29	0x3e1aed2a	0.15129533
30	0x3e1be6aa	0.1522471
31	0x3d6b75c3	0.057485353
32	0x3e1f1f92	0.15539387
33	0xbdaaefd4	-0.08346525
34	0xbe223970	-0.15842223
35	0x3de2f8ea	0.11082633
36	0xbe1becd6	-0.15227064
37	0xbd9c7051	-0.0763861
38	0xbdcf422b	-0.101200424
39	0x3d82a0c5	0.063783206
40	0xbe066683	-0.13125043
41	0xbda95bc0	-0.08269453
42	0xbb6f880b	-0.0036549594
43	0xbdf3f397	-0.119116955
44	0x3e2f34b4	0.17109948
45	0xbdbd52cf	-0.0924431
46	0x3c2b8fa5	0.010471259
47	0x3de7e788	0.11323458
48	0xbd48a629	-0.048986588
49	0xbceab0a8	-0.02864869
50	0x3d576e25	0.052595276
51	0x3a8c356d	0.0010697074
52	0x3e23c4ff	0.15993117
53	0x3d0409ac	0.032235786
54	0x3e18bee2	0.14916566
55	0x3c96116f	0.01831886
56	0xbe17b3ba	-0.14814654
57	0x3d822791	0.06355203
58	0x3cbc8b64	0.023015685
59	0xbd72bd89	-0.059262786
60	0xbcf72497	-0.030168815
61	0xbdc04fcf	-0.09390222
62	0xbd8d9a77	-0.069142275
63	0xbd8a0370	-0.06738937
64	0xbd2cb76e	-0.04216712
65	0x3da93f17	0.082639866
66	0xbdef4bf4	-0.11684409
67	0x3df7f60e	0.12107478
68	0xbd87ee2b	-0.06637224
69	0xbd8acf42	-0.067778125
70	0xbc23490f	-0.009966149
71	0xbe2e1eb5	-0.17003901
72	0x3da61618	0.08109683
73	0x3dc82b2d	0.0977386
74	0x3e016ae4	0.12638432
75	0x3e01b23d	0.12665649
76	0xbc69b470	-0.014264211
77	0xbd89397c	-0.067004174
78	0x3c488e07	0.012240893
79	0xbdf14176	-0.11780064
80	0x3e13938d	0.14411755
81	0xbe2135a6	-0.15743122
82	0xbe04be3f	-0.12963198
83	0xbd8c1ba8	-0.068412125
84	0xbe1d6c81	-0.15373422
85	0xbddfcff1	-0.109283336
86	0xbcbc9f71	-0.023025246
87	0x3d8e79a4	0.06956795
88	0xbd8d0790	-0.06886208
89	0xbd13a736	-0.036048137
90	0xbc5f1a0c	-0.01361705
91	0x3da460bb	0.080262624
92	0xbd0e745c	-0.034778938
93	0x3d561b88	0.05227235
94	0xbd8414cb	-0.064492784
95	0x3df34c2c	0.11879763
96	0xbd16e110	-0.03683573
97	0xbd8ad27f	-0.0677843
98	0xbc3928a9	-0.011301198
99	0x3dfcf172	0.123507395
100	0xbd175ed8	-0.036955684
101	0xbe295a12	-0.16538265
102	0x3e2190c7	0.15777884
103	0xbe0662f8	-0.13123691
104	0x3e33c206	0.17554483
105	0xbdcfc998	-0.10145873
106	0x3cdbcf57	0.026832266
107	0xbe19b4f7	-0.15010439
108	0x3d29b300	0.041430473
109	0x3d783e22	0.06060613
110	0xbdb335ca	-0.08750494
111	0xbe018c87	-0.12651263
112	0x3da97af8	0.082754076
113	0xbe174a71	-0.14774491
114	0xbe07b5c6	-0.13252935
115	0x3c97d78f	0.018535404
116	0x3cc4459c	0.023958974
117	0xbd4d6e9c	-0.050154313
118	0xbc0ae5f5	-0.008477678
119	0x3df93d31	0.121698745
120	0xbdabf18f	-0.08395683
121	0x3c02fb22	0.007994445
122	0xbdfebd78	-0.12438482
123	0xbdac339b	-0.084082805
124	0xbe0b2b20	-0.1359067
125	0xbd145d18	-0.036221594
126	0x3df2a99d	0.118487574
127	0x3caefb2e	0.021360006

lstm.weight_ih_l1 f4 [128, 32]
0	0x3e2ca39f	0.16859291
1	0xbe27cd52	-0.16386917
2	0x3d913fb8	0.070922315
3	0xbe1b7b46	-0.15183744
4	0xbd8a32ba	-0.067479566
5	0xbde80703	-0.113294624
6	0xbd087149	-0.033311162
7	0x3dcc3495	0.09970967
8	0xbe10ec45	-0.1415263
9	0xbd873cd8	-0.06603402
10	0xbe1a8749	-0.1509067
11	0x3c05db03	0.008169892
12	0x3d545cde	0.051846378
13	0x3df01e8f	0.117245786
14	0xbb92e44b	-0.004482781
15	0xbe04919d	-0.12946172
16	0x3db0157b	0.08597847
17	0x3b6df1b6	0.00363074
18	0xbd35ee46	-0.04441669
19	0xbd38eec4	-0.04514958
20	0xbcedd4b9	-0.029032098
21	0xbdd8d8c9	-0.105882235
22	0xbdcaa3a1	-0.09894491
23	0xbe1c7e8e	-0.15282652
24	0xbdf0ac0c	-0.11751565
25	0xbe285aca	-0.16440883
26	0x3df609f2	0.12013616
27	0x3b9a36a8	0.0047062226
28	0x3e229133	0.15875702
29	0xbda5d8ab	-0.08097967
30	0xbdcd9bb9	-0.10039467
31	0xbcf3a720	-0.029742777
32	0xbd1d8460	-0.03845632
33	0x3bb10295	0.005401919
34	0xbdf4e624	-0.11957958
35	0x3d98bd37	0.07457965
36	0x3d4ea30e	0.05044847
37	0x3d5802d2	0.052737065
38	0xbdb0914e	-0.08621465
39	0x3e0784c6	0.13234243
40	0xbdcce838	-0.1000523
41	0xbdcd7b08	-0.10033232
42	0x3da021a7	0.07818919
43	0xbdd0c332	-0.101934806
44	0x3d697bd3	0.057002854
45	0xbd0d77a5	-0.03453793
46	0xbd1d2a55	-0.03837045
47	0x3c10067e	0.00879061
48	0x3e18d9c2	0.14926818
49	0x3d90be0a	0.07067497
50	0x3e23df5d	0.16003175
51	0xbe3404a8	-0.17579901
52	0x3dac6b10	0.08418858
53	0x3e341c11	0.17588831
54	0xbe227cf7	-0.15867983
55	0x3e1d426c	0.15357369
56	0xbdcd5da4	-0.10027626
57	0x3d34b54a	0.044118203
58	0x3d9838b0	0.07432687
59	0x3d1a68d6	0.037697636
60	0xbddf0228	-0.10889083
61	0xbddaf255	-0.106907524
62	0x3e038a45	0.12845714
63	0xbc8decb1	-0.017324777
64	0xbdd3fbd1	-0.103507645
65	0xbd09aae9	-0.03361026
66	0xbdc4164b	-0.095745645
67	0xbe2e63cb	-0.17030255
68	0x3c357e4e	0.011077477
69	0xbe32023e	-0.17383668
70	0x3d8ed99e	0.06975101
71	0xbd87a387	-0.06622987
72	0xbdd65a2c	-0.10466418
73	0xbb12b380	-0.0022384822
74	0xbe2c6fbe	-0.16839501
75	0xbddd3341	-0.108007915
76	0xbe141b0f	-0.14463447
77	0x3d9f3871	0.07774437
78	0x3c4e3c92	0.012587683
79	0xbd2e3bb3	-0.042537402
80	0x3d99654f	0.07490026
81	0xbd99a15b	-0.07501479
82	0x3e038d34	0.12846833
83	0xbd65d168	-0.05610791
84	0x3e1f9a3a	0.15586177
85	0xbd8d67c2	-0.06904556
86	0xbdd593ba	-0.10428567
87	0xbd8f9c23	-0.070122026
88	0x3e1ad97a	0.15122023
89	0xbdea6d0c	-0.1144658
90	0x3df41b97	0.11919325
91	0xbe31fa97	-0.17380749
92	0x3ba37c97	0.0049892175
93	0x3d26ce66	0.04072418
94	0x3dd03ca8	0.10167819
95	0x3be342a0	0.0069354326
96	0x3cb239e3	0.021756118
97	0x3dfde5cf	0.12397348
98	0xbe1979be	-0.14987847
99	0xbd4cd3ca	-0.050006665
100	0xbc9ab984	-0.018887289
101	0x3d5d8317	0.054080095
102	0xbdaab4fa	-0.083353
103	0xbd1d4e8c	-0.038404986
104	0xbe1bc4c4	-0.15211779
105	0xbe002dcf	-0.12517475
106	0x3c095a90	0.008383408
107	0xbe184a36	-0.14872059
108	0xbd6f56e4	-0.058432475
109	0xbd067b10	-0.032832205
110	0x3d9f3537	0.07773822
111	0x3e31b3be	0.17353722
112	0xbe15fdf7	-0.14647661
113	0xbe203485	-0.15645035
114	0x3d97d9f5	0.07414619
115	0x3e1fb851	0.15597655
116	0xbd2b1a26	-0.041772984
117	0xbdd621d8	-0.10455674
118	0xbdfeb0c2	-0.124360576
119	0xbe16ee67	-0.14739381
120	0x3dbcb4cb	0.09214171
121	0x3e204d17	0.15654407
122	0x3e103fa0	0.14086771
123	0x3e24b4a5	0.16084535
124	0x3e10c033	0.14135818
125	0x3ce107d0	0.027469546
126	0xbe300fea	-0.1719357
127	0x3d6a3839	0.057182524
128	0xbd10b734	-0.035330966
129	0xbdf18565	-0.11793021
130	0x3ddd6847	0.10810905
131	0x3e20ed8e	0.1571562
132	0xbd0dd5b6	-0.03462764
133	0x3e13378c	0.14376658
134	0x3cb24c02	0.021764759
135	0x3e1fa754	0.15591174
136	0xbe2cd2b6	-0.16877255
137	0x3d0601e7	0.032716658
138	0xbbef810d	-0.007309085
139	0xbdbc1377	-0.091834
140	0x3d9fe976	0.07808201
141	0xbcb0bef7	-0.021575434
142	0xbe00964c	-0.12557334
143	0xbdbb7b42	-0.09154369
144	0xbda37b52	-0.07982506
145	0x3e0bda6f	0.13657545
146	0xbe11ea46	-0.14249524
147	0xbe1de2e1	-0.15418579
148	0xbd1fd094	-0.039017275
149	0x3e1e16bf	0.15438364
150	0xbe29568e	-0.16536924
151	0xbd1c72af	-0.03819531
152	0xbdf6392d	-0.12022624
153	0xbdf04e6c	-0.11733708
154	0xbe0dd1aa	-0.13849512
155	0xbdcafe32	-0.09911765
156	0xbc07e24b	-0.008293699
157	0x3d79b1a2	0.06096042
158	0x3e0a4142	0.13501456
159	0x3dc703ce	0.097175226
160	0xbd805d2a	-0.0626777
161	0xbd633ede	-0.055479877
162	0x3deef2a0	0.11667371
163	0x3df44cee	0.11928736
164	0xbdf5d3da	-0.12003298
165	0xbd49ad67	-0.049237635
166	0xbdb55893	-0.08854785
167	0x3dd8517a	0.105624154
168	0x3cd403e1	0.025880756
169	0x3d02c4ee	0.031926088
170	0x3c20b488	0.009808667
171	0x3d833a7a	0.06407638
172	0xbe24c500	-0.16090775
173	0xbddf926d	-0.109166004
174	0x3e0ed6c7	0.13949119
175	0xbd209d1c	-0.03921233
176	0x3e13aba7	0.14420949
177	0xbcb19818	-0.02167897
178	0x3c121f02	0.008918526
179	0x3b967037	0.004591014
180	0xbdf9983f	-0.12187242
181	0x3dbae2c4	0.09125283
182	0xbd0c4acb	-0.034251016
183	0xbdca4c4d	-0.098778345
184	0xbd15359f	-0.03642809
185	0x3dd18eff	0.102323525
186	0xbde441a0	-0.111453295
187	0x3da532c9	0.08066327
188	0x3e205b1b	0.15659754
189	0xbdb10e76	-0.08645336
190	0x3da8ae78	0.08236402
191	0x3de10fa5	0.10989312
192	0x3e19b63d	0.15010925
193	0x3e0870c5	0.13324268
194	0xbe330a8d	-0.17484494
195	0x3d8dbc03	0.06920626
196	0xbded5840	-0.11589098
197	0xbe319e19	-0.17345466
198	0xbd97d15f	-0.07412981
199	0x3d7ed1c2	0.06221176
200	0xbc7aa2f5	-0.015297641
201	0xbc506e03	-0.012721541
202	0x3d828312	0.06372656
203	0x3df917e8	0.12162763
204	0xbd603e6b	-0.054747026
205	0x3dbd3257	0.09238117
206	0x3da9551a	0.08268185
207	0xbe1b2f24	-0.15154701
208	0x3e30b195	0.17255242
209	0xbe13848c	-0.14406031
210	0xbd92ec4a	-0.07173975
211	0x3d45fa85	0.048334617
212	0x3d9a1fda	0.075256065
213	0x3dda3255	0.10654131
214	0x3aaead6f	0.0013326834
215	0xbe0925ca	-0.13393322
216	0x3e288eca	0.1646072
217	0xbe21db12	-0.15806225
218	0xbd8108a9	-0.0630048
219	0xbca4bd7c	-0.020109884
220	0x3e14ea7e	0.14542577
221	0x3d1eb108	0.03874305
222	0xbe2d331c	-0.16914028
223	0xbd0183e2	-0.031619914
224	0x3c9b1017	0.01892857
225	0xbd4ade13	-0.049528193
226	0xbdbf14cc	-0.093301386
227	0x3db33d62	0.08751942
228	0xbd4ec3a0	-0.05047953
229	0xbd9d92c0	-0.07694006
230	0x3cf4e0c6	0.029892337
231	0xbb8862d0	-0.00416217
232	0x3dbfe364	0.09369543
233	0x3db2fb0a	0.08739288
234	0x3de84260	0.11340785
235	0x3e0b807c	0.13623232
236	0xbd8a3c87	-0.06749826
237	0xbda0da98	-0.078541934
238	0x3da11946	0.07866149
239	0xbe187f4b	-0.14892308
240	0xbe00be8b	-0.12572686
241	0xbcfaa514	-0.030596294
242	0xbde29b87	-0.11064821
243	0x3cdb2224	0.026749678
244	0x3d8d4c39	0.06899304
245	0xbc881dc8	-0.016615763
246	0x3e18b88a	0.14914146
247	0x3dafa3f8	0.085761964
248	0x3db958e0	0.09050155
249	0xbdb14d5f	-0.086573355
250	0xbe2e1171	-0.16998841
251	0x3d7cae1b	0.061689477
252	0xbe2aed42	-0.16692069
253	0x3e1d4084	0.15356642
254	0x3e24e6e3	0.16103701
255	0x3c0a0702	0.008424522

lstm.weight_hh_l1 f4 [128, 32]
0	0xbd0fc149	-0.03509644
1	0x3e0d19ce	0.13779375
2	0x3e00c361	0.12574531
3	0xbca10722	-0.019656722
4	0x3dc6c5b1	0.097056754
5	0xbe167a01	-0.14694978
6	0xbe251971	-0.16122986
7	0x3d981999	0.07426757
8	0x3db4c317	0.08826273
9	0xbdc6dbc1	-0.097098835
10	0x3e254e20	0.16143084
11	0x3dbbe74d	0.091749765
12	0x3d3975c7	0.045278337
13	0x3cfe9159	0.031075167
14	0x3d4736b5	0.048636157
15	0xbd9d38e7	-0.07676869
16	0xbd922d8a	-0.07137592
17	0x3ba7d20a	0.005121474
18	0xbe14f64a	-0.14547077
19	0xbb3ecef0	-0.0029115044
20	0xbe24cbfb	-0.16093437
21	0xbe2bf84c	-0.16793936
22	0xbde3b20a	-0.11117943
23	0xbdf23ec4	-0.11828378
24	0xbe075ec0	-0.13219738
25	0xbc96398c	-0.018337987
26	0xbbdc1ccf	-0.0067173014
27	0x3e305c68	0.1722275
28	0xbe00359b	-0.12520449
29	0xbe1f6220	-0.15564775
30	0xbdcfcd5b	-0.1014659
31	0x3d5185b2	0.051152892
32	0xbe1c45e7	-0.1526104
33	0x3c877758	0.0165364
34	0x3e26c83f	0.16287325
35	0xbd5ea605	-0.054357547
36	0x3e243290	0.16034913
37	0x3ccffb5f	0.025388418
38	0x3d8ba122	0.06817843
39	0x3d46ce63	0.04853667
40	0x3d237f98	0.039916605
41	0x3d237b87	0.039912727
42	0x3e07fae6	0.13279304
43	0x3d681d5d	0.056668628
44	0xbc0add87	-0.008475668
45	0x3e20d5e8	0.15706599
46	0x3d93264c	0.07185039
47	0xbd3dad39	-0.046307776
48	0x3ddaf6a4	0.10691574
49	0x3d216b14	0.03940876
50	0xbde25cf8	-0.11052889
51	0x3e12afd1	0.14324881
52	0x3dc56308	0.09638029
53	0x3d719e96	0.05898913
54	0x3d923a71	0.07140053
55	0xbd1fdfb7	-0.03903171
56	0x3d8c4fd7	0.06851166
57	0x3d4385b9	0.04773495
58	0x3e25d2d4	0.16193706
59	0xbbcb9d9d	-0.0062138573
60	0x3e29f4af	0.16597246
61	0x3c16ba33	0.009199667
62	0x3a6cb70d	0.0009029962
63	0x3d9a2785	0.07527069
64	0xbe0e1ce9	-0.13878216
65	0x3c6e938d	0.014561546
66	0xbe192cd8	-0.14958513
67	0x3d81cca6	0.06337862
68	0xbe2aa8ae	-0.16665909
69	0xbbc9aba2	-0.0061544934
70	0xbd9a99e5	-0.07548884
71	0xbce9e1ea	-0.028550107
72	0x3d9a77d5	0.075423874
73	0x3d7ba84d	0.0614398
74	0xbd8b5e09	-0.06805045
75	0x3de2055b	0.11036178
76	0xbd62005c	-0.055176124
77	0x3e241919	0.16025199
78	0x3d82b853	0.06382813
79	0xbd26f922	-0.040764935
80	0xbd0e9b53	-0.034816097
81	0x3bb065f6	0.0053832484
82	0x3bf44a78	0.0074551664
83	0xbc934618	-0.01797776
84	0x3e079159	0.1323904
85	0xbdf11b02	-0.117727295
86	0x3dd236f8	0.10264391
87	0x3e1e0003	0.15429692
88	0x3ddc9d4d	0.1077219
89	0xbe2f30d8	-0.17108476
90	0xbe074b5e	-0.13212344
91	0x3de05cd6	0.10955207
92	0xbdaabc67	-0.08336716
93	0x3e1dbb82	0.1540356
94	0x3c8ccbe2	0.017187063
95	0xbe0554c4	-0.13020617
96	0x3db9e32e	0.09076534
97	0xbdea7185	-0.114474334
98	0xbdaeb755	-0.085310616
99	0xbe0f3f3a	-0.13988963
100	0xbd3cbc13	-0.0460778
101	0xbe2529d6	-0.1612924
102	0xbd7d0383	-0.061770927
103	0x3df64100	0.120241165
104	0xbd8d559b	-0.069010936
105	0xbd682efa	-0.056685425
106	0x3da5d02c	0.08096346
107	0xbd6d76c9	-0.05797461
108	0xba22e380	-0.000621371
109	0xbde5b960	-0.11216998
110	0x3de6cad9	0.11269159
111	0x3da1980e	0.0789033
112	0xbc675a78	-0.0141206905
113	0x3e20495e	0.15652987
114	0x3dd7c28d	0.105351545
115	0x3df5182e	0.119675025
116	0x3bc92028	0.0061378665
117	0x3c8905ee	0.01672646
118	0x3e0d5ccd	0.13804932
119	0xbe042e9e	-0.12908408
120	0x3da1af97	0.07894819
121	0xbcd9e1c6	-0.026596915
122	0x3e31e669	0.17373051
123	0xbde6813e	-0.1125512
124	0x3c582896	0.01319327
125	0xbe12fc09	-0.14353956
126	0x3c8e54f2	0.01737449
127	0xbe257bef	-0.16160558
128	0x3e19a574	0.15004522
129	0x3da6799d	0.08128665
130	0x3d04d4eb	0.032429617
131	0xbdc99660	-0.09843135
132	0xbdadfcd5	-0.084954895
133	0xbbb731cc	-0.005590653
134	0xbd92a70f	-0.0716077
135	0x3dcfbfb9	0.1014399
136	0x3df8bed5	0.12145773
137	0xbce028c4	-0.027363189
138	0xbde16989	-0.11006457
139	0x3dc43e75	0.09582225
140	0xbb5c5adb	-0.003362349
141	0x3d8d9292	0.06912722
142	0xbcc7d86a	-0.024395186
143	0xbe1858ae	-0.14877579
144	0xbe2183c7	-0.15772925
145	0xbe11368b	-0.14180963
146	0x3d8c79f8	0.06859201
147	0xbdac7535	-0.08420793
148	0x3e1341a4	0.14380509
149	0xbe0e5e0a	-0.1390306
150	0xbe109b4a	-0.14121738
151	0xbe323193	-0.17401724
152	0xbdc0864b	-0.09400614
153	0xbe20cf6b	-0.15704124
154	0xbbfa97e8	-0.007647503
155	0xbd608bb1	-0.05482072
156	0x3ca58664	0.020205684
157	0xbdeb43eb	-0.11487564
158	0xbca65bc2	-0.020307425
159	0xbdb5f2dc	-0.088842124
160	0xbe1d5388	-0.15363896
161	0xbe09fe08	-0.13475811
162	0x3dd3ce5c	0.10342094
163	0xbc42f519	-0.011899256
164	0xbdf73282	-0.120701805
165	0x3d03b41c	0.032154188
166	0xbdcbb027	-0.09945708
167	0x3d274dd0	0.040845692
168	0x3dacf279	0.084446855
169	0x3cf195fd	0.029490465
170	0x3e0cf985	0.13767059
171	0xbdd184de	-0.102304205
172	0x3dec0c84	0.11525825
173	0xbd9af6e6	-0.075666234
174	0xbdb9c2ee	-0.09070383
175	0xbe017730	-0.12643123
176	0xbd4139ad	-0.047174145
177	0xbd95eca7	-0.073205285
178	0xbe2be5ae	-0.16786835
179	0xbd880ff5	-0.066436686
180	0x3c5bb740	0.013410389
181	0x3c837f03	0.016051775
182	0x3d8a91d6	0.06766097
183	0xbe04bb63	-0.12962107
184	0xbe115401	-0.14192201
185	0x3e1d6719	0.1537136
186	0xbe0d0f3b	-0.13775341
187	0xbadee9a3	-0.0017006885
188	0x3db857d7	0.09001129
189	0xbc2ac9bd	-0.010424075
190	0xbe2fb4e4	-0.17158848
191	0x3e2f79cc	0.17136306
192	0x3b0dc4f6	0.002163229
193	0x3dbb77c4	0.09153703
194	0x3e2e5612	0.1702502
195	0x3ca63d39	0.020292865
196	0x3decf0e1	0.115693815
197	0x3dd15a21	0.10222269
198	0xbdc5815f	-0.09643816
199	0x3e19d569	0.15022816
200	0xbe17181e	-0.14755294
201	0xbd8b3475	-0.06797115
202	0x3dcff53d	0.10154197
203	0xbd522367	-0.051303294
204	0xbd391cb4	-0.04519339
205	0xbda6deaa	-0.081479385
206	0xbde935c7	-0.1138721
207	0x3d42daa6	0.0475718
208	0xbc844aa8	-0.01614888
209	0xbe08e922	-0.13370183
210	0x3dd832e5	0.10556582
211	0x3e126ca3	0.14299254
212	0x3d1e9f27	0.038726
213	0xbe065cd0	-0.13121343
214	0xbded7cb8	-0.11596054
215	0xbe159019	-0.1460575
216	0xbd2c27b6	-0.04203006
217	0x3d32b0d0	0.043625653
218	0x3d4032a2	0.046923287
219	0x3d5aeea7	0.053450253
220	0x3d2063f2	0.039157815
221	0x3c655fea	0.0139999185
222	0xbce74cc4	-0.028234847
223	0xbdb35cbe	-0.087579235
224	0xbe22cb2f	-0.15897821
225	0x3de4082c	0.11134371
226	0x3dbbd290	0.09171021
227	0xbd931d5b	-0.071833335
228	0xbe320daa	-0.17388025
229	0xbd6c6972	-0.057717748
230	0xbe2a98fa	-0.16659918
231	0x3d0fecd1	0.035137955
232	0x3c8f39df	0.01748365
233	0x3e13b6df	0.14425229
234	0xbdbe8429	-0.09302551
235	0xbe329e91	-0.17443301
236	0xbd88c61b	-0.066784106
237	0x3d9cb148	0.07651001
238	0x3d588132	0.052857585
239	0xbda771d4	-0.08176008
240	0x3dc708fa	0.09718509
241	0x3e2e83dd	0.1704249
242	0x3c1668f8	0.0091803
243	0xbe217b02	-0.1576958
244	0xbdeff72c	-0.11717066
245	0xbdcd3c36	-0.1002125
246	0xbdbcf08b	-0.092255674
247	0x3d8bf38e	0.06833564
248	0xbdacbcd2	-0.08434452
249	0x3d8de4a9	0.06928379
250	0x3d04c250	0.032411873
251	0xbe34b281	-0.17646219
252	0xbdf016ba	-0.11723085
253	0x3dad8cbf	0.08474111
254	0xbe268950	-0.16263318
255	0xbaef2d15	-0.0018247688

lstm.bias_ih_l1 f4 [128]
0	0xbdfac5d6	-0.122447655
1	0xbd83e0db	-0.06439372
2	0x3e0daa71	0.1383455
3	0x3e31c822	0.17361501
4	0xbe05f69a	-0.13082352
5	0xbd0c7d8d	-0.034299422
6	0x3e153891	0.1457236
7	0x3df20f15	0.11819283
8	0x3dd6f37e	0.10495661
9	0x3c194a21	0.009356053
10	0x3da93e7d	0.08263872
11	0x3e0dbabb	0.13840763
12	0x3ca4a128	0.020096377
13	0x3d8764fb	0.06611057
14	0xbdc19d39	-0.09453816
15	0xbd1e59fd	-0.03866004
16	0xbd721d61	-0.05911005
17	0x3df3df93	0.11907878
18	0x3e149150	0.14508557
19	0x3d67e800	0.056617737
20	0xbdacb571	-0.08433045
21	0xbe32428b	-0.17408197
22	0xbc8da9df	-0.017292915
23	0xbcc50b24	-0.024053164
24	0xbcf1dff8	-0.029525742
25	0x3d7bc3fd	0.061466206
26	0xbd975968	-0.073901
27	0x3dc69875	0.096970476
28	0xbdecb76d	-0.11558423
29	0xbe10d390	-0.14143205
30	0xbdf5b517	-0.11997431
31	0x3d4fdd14	0.050747946
32	0xbc567436	-0.01308923
33	0xbcd4706c	-0.025932513
34	0xbe319a61	-0.17344047
35	0x3cd85949	0.026409762
36	0xbe1fc5d8	-0.15602815
37	0xbe28b2c4	-0.16474444
38	0xbdd51267	-0.104039006
39	0xbcbc73e8	-0.023004487
40	0x3d1dfd8f	0.03857189
41	0x3ddbc64c	0.107311815
42	0x3d99e937	0.07515185
43	0x3dba3d5f	0.09093737
44	0xbd1af368	-0.037829787
45	0x3db92298	0.09039801
46	0xbe2c247f	-0.16810797
47	0x3e2138c9	0.15744318
48	0xbd79c624	-0.060979977
49	0x3de3abe2	0.111167684
50	0xbd7fc3e6	-0.062442683
51	0xbdb83da2	-0.089961305
52	0x3b1c777a	0.0023874925
53	0xbdf89410	-0.12137616
54	0xbde14ce0	-0.11000991
55	0x3d8e324f	0.06943189
56	0xbd08b360	-0.03337419
57	0xbdfcc56e	-0.12342344
58	0xbda6e929	-0.081499405
59	0xbbe545ed	-0.006996861
60	0x3dd6e9f5	0.104938425
61	0xbe23f86a	-0.16012731
62	0x3dd5218d	0.1040679
63	0xbe2cdb29	-0.16880478
64	0x3d91e1a8	0.07123119
65	0xbe256e0d	-0.16155262
66	0xbdffbcf6	-0.12487213
67	0x3e2621b7	0.16223799
68	0x3dcae624	0.09907177
69	0x3d1397b8	0.036033362
70	0xbcd01b53	-0.025403654
71	0xbe028b5a	-0.12748471
72	0xbd9b501e	-0.075836405
73	0x3d918f3c	0.07107398
74	0x3d1c0fdd	0.038101066
75	0x3e2b20e1	0.16711761
76	0xbda9b72c	-0.082868904
77	0x3d8a0b60	0.06740451
78	0x3dff8ab3	0.12477627
79	0xbe2d1396	-0.16902003
80	0xbe20363d	-0.1564569
81	0x3dea73d7	0.11447876
82	0x3e1cc961	0.15311195
83	0xbc4748c8	-0.0121633485
84	0xbe29d470	-0.16584945
85	0x3dc19a10	0.09453213
86	0x3cb2554a	0.021769185
87	0xbdab8760	-0.0837543
88	0x3e1c8060	0.15283346
89	0x3c5e6d5d	0.013575879
90	0x3e05933b	0.13044445
91	0x3db1117a	0.086459115
92	0x3dea0c38	0.11428112
93	0xbdb97329	-0.09055168
94	0xbd8465a3	-0.06464698
95	0xbe21b113	-0.15790205
96	0x3e25033d	0.16114517
97	0xbdced85a	-0.100998595
98	0xbd2a2a27	-0.041544106
99	0x3dcf939b	0.101355754
100	0xbdffec70	-0.12496269
101	0xbd83cadf	-0.06435179
102	0xbe0fc028	-0.14038146
103	0x3bbee6fa	0.0058258744
104	0x3dd22ba2	0.102622285
105	0xbdac6dce	-0.08419381
106	0x3e188fab	0.14898555
107	0xbaba3b42	-0.0014208334
108	0x3da33a49	0.079701014
109	0xbdc03bcd	-0.09386406
110	0x3defa44f	0.11701261
111	0xbd8feea3	-0.07027938
112	0xbe0c12c3	-0.13679032
113	0xbd17ae37	-0.03703138
114	0x3e0f79bc	0.14011282
115	0x3ca9ac28	0.020711973
116	0x3e2eea96	0.17081675
117	0xbe00d2a4	-0.12580353
118	0x3d163143	0.036668073
119	0xbd4265d8	-0.047460407
120	0x3cda298c	0.02663114
121	0xbdc28c5f	-0.0949943
122	0xbd3d5448	-0.046222955
123	0x3e0bb830	0.1364448
124	0x3dd8bd0e	0.10582934
125	0x3e1ddbff	0.15415953
126	0xbcb9bc99	-0.022672938
127	0xbdf5e94f	-0.12007391

lstm.bias_hh_l1 f4 [128]
0	0xbe15ef79	-0.14642133
1	0x3cfdcf99	0.03098278
2	0x3c834e00	0.016028404
3	0xbe30b366	-0.17255935
4	0xbe26d300	-0.16291428
5	0x3e1fd860	0.15609884
6	0x3e1a2655	0.15053685
7	0x3e06d092	0.13165501
8	0xbdb10beb	-0.08644851
9	0xbe1f2826	-0.15542659
10	0xbadc0497	-0.0016786036
11	0x3e1fd8a2	0.15609983
12	0x3d85eb77	0.06539052
13	0x3e0b6864	0.1361404
14	0xbdb457c1	-0.088058
15	0xbb80cdce	-0.003930784
16	0x3e1aceea	0.15117994
17	0x3e2f616d	0.17127009
18	0x3d952216	0.07281892
19	0xbdeee563	-0.11664846
20	0xbe27ef62	-0.16399911
21	0x3d1242c3	0.0357082
22	0x3e179fa6	0.14806995
23	0x3d16ebda	0.03684602
24	0x3da2e0e7	0.07953053
25	0x3e1fbe18	0.15599859
26	0x3bb8bdc7	0.0056378576
27	0x3dd38672	0.10328378
28	0x3da8923d	0.08231018
29	0x3d3f00c4	0.04663159
30	0xbdd50dda	-0.104030326
31	0xbd86a046	-0.065735385
32	0xbc2ae293	-0.010429996
33	0x3d0ff235	0.035143096
34	0xbbec2ade	-0.0072072586
35	0xbe1d2247	-0.15345107
36	0xbdc8f04b	-0.09811457
37	0x3ccac17b	0.024750462
38	0x3dbd76a7	0.09251147
39	0x3d601940	0.05471158
40	0x3e080750	0.1328404
41	0x3e094cb1	0.13408162
42	0x3e040158	0.12891138
43	0xbdaa45b5	-0.08314077
44	0x3e2708b1	0.1631191
45	0xbde1a5aa	-0.11017926
46	0xbbf62084	-0.0075112004
47	0x3d6ade4e	0.057340913
48	0x3cce6c4c	0.025198124
49	0xbddb3007	-0.1070252
50	0xbdcb1653	-0.099163674
51	0xbe2a7277	-0.16645227
52	0x3e0c33c7	0.13691626
53	0xbe2f0951	-0.17093398
54	0xbd8c36df	-0.06846403
55	0x3d77deca	0.060515203
56	0x3cb75165	0.02237768
57	0x3d2c4c0a	0.042064704
58	0x3d6a0f03	0.057143223
59	0x3dda9b42	0.10674144
60	0x3ddb72c3	0.107152484
61	0xbe131259	-0.14362468
62	0xbe31ed73	-0.17375736
63	0x3ce55839	0.02799617
64	0xbe14dab8	-0.1453656
65	0x3da529d0	0.08064616
66	0x3e2e708b	0.17035119
67	0x3c607c83	0.013701561
68	0xbd8df2a9	-0.069310494
69	0xbd31c2c9	-0.043398652
70	0xbe13964e	-0.14412805
71	0xbd210081	-0.03930712
72	0xbda18e1a	-0.07888432
73	0xbd0cd4f7	-0.034382787
74	0xbb66cf41	-0.0035218748
75	0x3e207d8d	0.15672894
76	0xbd0b3c04	-0.033992782
77	0x3d49554d	0.049153615
78	0xbe1cebda	-0.15324345
79	0xbcecc400	-0.028902054
80	0x3baebec2	0.0053327987
81	0x3e32ebde	0.17472789
82	0x3dc27fbe	0.09497021
83	0xbd8b3659	-0.06797475
84	0xbdcc2e89	-0.099698134
85	0xbdb2936a	-0.08719523
86	0x3e14d45c	0.14534134
87	0x3dc5058d	0.09620199
88	0xbcb50c6b	-0.022100648
89	0xbe067b68	-0.13133013
90	0x3e11dcca	0.1424438
91	0x3dc9a602	0.098461166
92	0x3d84194e	0.06450139
93	0x3dfc2038	0.12310833
94	0xbe1ea9fb	-0.1549453
95	0xbd9fb1d5	-0.07797591
96	0xbe0933d4	-0.13398677
97	0xbda6cf65	-0.08145026
98	0xbdfbf705	-0.123029746
99	0x3e06f908	0.13180935
100	0x3dcd83c3	0.10034897
101	0x3dd246b4	0.10267392
102	0xbda550f0	-0.08072078
103	0x3e09f154	0.13470966
104	0x3d8348be	0.06410359
105	0x3cee9b60	0.029126823
106	0x3c94559f	0.018107234
107	0x3e0bfc12	0.13670376
108	0xbd0b3453	-0.033985447
109	0xbe22d5f2	-0.15901926
110	0xbc59c4eb	-0.013291578
111	0x3c82d762	0.015971843
112	0xbe082015	-0.13293488
113	0xbd58df21	-0.052947167
114	0x3c9c4201	0.019074442
115	0x3e01ed7b	0.12688248
116	0x3bfb0be0	0.0076613277
117	0xbe301a2d	-0.17197485
118	0xbd187ffc	-0.03723143
119	0x3da998eb	0.0828112
120	0x3e2f11f1	0.17096688
121	0xbdfcf2d1	-0.12351001
122	0xbdf88619	-0.12134952
123	0xbdfb9f16	-0.122862026
124	0xbde2d9d1	-0.110767014
125	0x3d6c8670	0.057745397
126	0xbb5df4fb	-0.0033867944
127	0x3e0494d2	0.12947395

lstm.weight_ih_l2 f4 [128, 32]
0	0xbdc6b847	-0.09703117
1	0xbe0b45cc	-0.13600844
2	0x3deaeb74	0.1147069
3	0x3ce1a16e	0.027542796
4	0xbc984b9d	-0.018590743
5	0xbd905fc6	-0.07049517
6	0xbe09141a	-0.13386574
7	0xbdeebe99	-0.11657447
8	0x3de3816a	0.11108668
9	0xbd409102	-0.04701329
10	0x3dbfb0bc	0.09359881
11	0x3cf4c7d9	0.029880451
12	0xbdacced2	-0.08437885
13	0xbcc49c91	-0.024000438
14	0x3d4f7242	0.050646074
15	0xbe13b6e5	-0.14425237
16	0x3d19d88b	0.037560027
17	0xbe32eabe	-0.1747236
18	0xbe17f990	-0.14841294
19	0xbc0111dd	-0.007877794
20	0xbc5bad5a	-0.013408029
21	0x3db09926	0.08622961
22	0x3e0fb87f	0.14035223
23	0x3d024393	0.031802725
24	0x3c9dfee8	0.019286588
25	0x3c1f106c	0.009708505
26	0x3c0731f6	0.008251658
27	0xbcb5cfa0	-0.02219373
28	0x3d1fba54	0.038996056
29	0xbe241db0	-0.1602695
30	0x3e21cac6	0.15800008
31	0x3bab5f8e	0.005229897
32	0xbd80c119	-0.062868305
33	0x3dcdf84a	0.10057123
34	0x3e16f10c	0.1474039
35	0xbcd6279f	-0.02614194
36	0x3dffa940	0.12483454
37	0x3d3e240f	0.046421107
38	0x3d376d4e	0.044781975
39	0x3e03e5fa	0.12880698
40	0xbe08c946	-0.1335803
41	0xbca8d313	-0.02060846
42	0x3e3012c1	0.17194654
43	0xbdc51058	-0.09622258
44	0xbd0d3a15	-0.03447922
45	0x3bc9117c	0.0061361175
46	0x3d186e65	0.037214655
47	0x3dec3080	0.11532688
48	0xbdac971d	-0.0842726
49	0x3e210388	0.15724003
50	0x3d8b2889	0.06794841
51	0x3d05b540	0.032643557
52	0xbdbefc6f	-0.09325492
53	0x3ae89ae0	0.0017746352
54	0xbcaeb6fa	-0.021327484
55	0x3ddb2e64	0.10702208
56	0x3e089155	0.1333669
57	0x3dd670d7	0.10470741
58	0x3e2250cf	0.15851139
59	0xbd1619e8	-0.0366458
60	0xbe162e7d	-0.14666171
61	0x3d93d07a	0.07217498
62	0xbd7f065a	-0.062261917
63	0xbd947cb9	-0.072503515
64	0xbe0eb090	-0.13934541
65	0x3d4caa83	0.0499673
66	0x3cf150b1	0.029457422
67	0x3e1b7d09	0.15184416
68	0xbe03cd80	-0.12871361
69	0xbe0af2da	-0.13569203
70	0xbe2a03fc	-0.16603082
71	0xbe1db047	-0.15399276
72	0xbe2c9650	-0.16854215
73	0x3ddb9f38	0.10723728
74	0xbde31be0	-0.11089301
75	0x3db6a816	0.089187786
76	0x3dbc7396	0.09201734
77	0xbba3afad	-0.0049953074
78	0x3dd5b197	0.10434263
79	0xbd9a08e7	-0.07521229
80	0x3c8465a9	0.016161757
81	0x3df4cc44	0.11953023
82	0xbe15a04b	-0.14611928
83	0x3d0e969f	0.034811612
84	0x3d07196f	0.03298324
85	0xbc814428	-0.01577957
86	0xbdce9fa4	-0.10089043
87	0xbe2473e5	-0.16059835
88	0x3a4a65f5	0.0007720881
89	0xbd97bca0	-0.07409024
90	0x3dc33956	0.0953242
91	0xbd8259ed	-0.06364808
92	0x3e0b8ca8	0.13627875
93	0xbbe1f0fb	-0.006895182
94	0x3d98a157	0.07452648
95	0x3caa1eb5	0.020766595
96	0xbd9e1972	-0.07719697
97	0x3b21dab0	0.0024696998
98	0x3e025676	0.12728295
99	0xbe228da9	-0.15874352
100	0x3e243309	0.16035093
101	0xbe12b1b5	-0.14325602
102	0xbd7a9e79	-0.061186288
103	0xbe27f034	-0.16400224
104	0x3de2fc2e	0.11083256
105	0xbe19450e	-0.14967749
106	0xbc78d6fc	-0.015187975
107	0xbc859d46	-0.016310345
108	0x3e18c659	0.14919414
109	0xbcf9454b	-0.03042855
110	0xbe045cb3	-0.12925987
111	0xbda04721	-0.07826067
112	0x3e05d20d	0.1306841
113	0x3e04fa00	0.12985992
114	0xbc6aa8f6	-0.01432251
115	0xbe2e49bb	-0.17020313
116	0xbe0feaf4	-0.14054471
117	0xbd960cb4	-0.07326642
118	0xbe1671eb	-0.14691894
119	0x3d9c58ee	0.076341495
120	0xbe2702c9	-0.16309656
121	0x3d306a4a	0.043070115
122	0x3c15896f	0.009127005
123	0xbd815e7c	-0.063168496
124	0x3d741295	0.059588034
125	0x3dec0550	0.11524451
126	0xbd04604a	-0.03231839
127	0x3df8b171	0.12143219
128	0xbe129c63	-0.1431747
129	0xbd678afe	-0.056529038
130	0x3e063795	0.1310714
131	0xbdc81928	-0.09770423
132	0xbdef118a	-0.11673267
133	0x3de7a97d	0.11311624
134	0xbddd9c8c	-0.108208746
135	0x3b41c001	0.0029563906
136	0x3d44ab92	0.048015185
137	0xbdc5bb88	-0.09654909
138	0xbe1f3158	-0.15546167
139	0xbe212e22	-0.15740255
140	0x3d8f400f	0.0699464
141	0xbdc2ce1c	-0.095119685
142	0x3ded6026	0.115906045
143	0xbe184b8c	-0.14872569
144	0xbe161964	-0.14658123
145	0xbe2c6ebf	-0.16839121
146	0x3dc792c0	0.09744787
147	0xbd58aed3	-0.0529011
148	0x3dd6eff2	0.10494985
149	0x3de737e6	0.11289959
150	0x3d4c688d	0.049904395
151	0x3d1bb82f	0.038017448
152	0x3c05ddc1	0.008170546
153	0x3e2b0184	0.16699797
154	0x3d81b471	0.063332446
155	0x3e043573	0.12911014
156	0xbe107aae	-0.14109299
157	0xbc748bb3	-0.014925885
158	0xbd94edfe	-0.07271956
159	0xbda4bdd0	-0.08044016
160	0xbcf29c97	-0.029615683
161	0x3e0677f2	0.13131693
162	0x3a04020c	0.00050357054
163	0xbd4d3fc7	-0.05010965
164	0xbda21416	-0.07913987
165	0xbd6727b6	-0.056434356
166	0x3df44568	0.11927301
167	0x3df63dfc	0.12023541
168	0xbd7cd5ed	-0.061727453
169	0xbe0ac40b	-0.13551347
170	0xbd00199a	-0.031274416
171	0x3e2fa525	0.17152841
172	0x3d9ffbcd	0.07811699
173	0x3e0ce0ee	0.13757679
174	0xbd29a296	-0.04141482
175	0x3db82888	0.08992106
176	0xbe24f588	-0.16109288
177	0x3dab0a57	0.083515815
178	0xbe2f331a	-0.17109337
179	0xbde70233	-0.11279716
180	0xbe0da7bc	-0.13833517
181	0xbe086d5a	-0.13322964
182	0x3de5d570	0.112223506
183	0x3e10e580	0.14150047
184	0xbe06f319	-0.13178672
185	0x3d44b81a	0.048027135
186	0x3e074670	0.13210464
187	0xbdd3fe34	-0.1035122
188	0x3dd72bcb	0.105064
189	0xbe124103	-0.14282613
190	0xbd43064a	-0.04761342
191	0x3e0d57e1	0.13803054
192	0x3e08cabf	0.13358591
193	0x3e280b5b	0.16410582
194	0xbe135681	-0.14388467
195	0x3b238299	0.0024949668
196	0x3e2037a9	0.15646233
197	0xbe33ada9	-0.17546715
198	0x3e2e246e	0.17006084
199	0x3ded69dc	0.11592457
200	0x3d5c66ca	0.053808965
201	0xbd2ee0eb	-0.042694967
202	0x3e2d8ffa	0.16949454
203	0x3b3e83a1	0.0029070156
204	0xbe11dc00	-0.1424408
205	0x3daa2e43	0.08309605
206	0xbe2cec48	-0.16887009
207	0xbdbe32e0	-0.092870474
208	0xbd84993f	-0.06474542
209	0xbe2d0d93	-0.1689971
210	0xbdbbbc4d	-0.09166775
211	0x3e15ca9f	0.14628075
212	0xbe049c8a	-0.1295034
213	0x3e1a8425	0.15089472
214	0xbdd39239	-0.10330624
215	0xbe18906c	-0.14898843
216	0xbb90a899	-0.0044146297
217	0x3e0d3bd4	0.13792354
218	0xbe1cb465	-0.1530319
219	0x3d4c6953	0.049905133
220	0x3e29f509	0.1659738
221	0x3e2e4217	0.17017399
222	0x3c909ab8	0.0176519
223	0xbe0b0d1c	-0.1357922
224	0x3d7fb052	0.06242401
225	0x3e1061bc	0.14099783
226	0x3d49748c	0.049183413
227	0x3d673b99	0.05645332
228	0xbdd1b780	-0.10240078
229	0x3b79a6c9	0.0038093796
230	0xbd2fdd22	-0.042935498
231	0xbde8ca81	-0.113667496
232	0x3de87717	0.113508396
233	0x3dbd8b01	0.092550285
234	0xbe331b14	-0.17490798
235	0x3e1787c4	0.14797884
236	0x3c7f8930	0.015596673
237	0xbde55845	-0.11198477
238	0x3cc81a7c	0.024426691
239	0x3e123f70	0.14282012
240	0xbd9dbc15	-0.077018894
241	0x3e295ead	0.16540022
242	0xbcf938e0	-0.030422628
243	0xbcaf6b8e	-0.02141359
244	0x3d24bbbd	0.040218104
245	0x3d01c747	0.031684186
246	0x3e2a5aaf	0.16636156
247	0xbc2637a7	-0.0101451045
248	0x3d729d79	0.05923221
249	0xbde3f835	-0.11131326
250	0x3d803d11	0.062616475
251	0xbe308956	-0.1723989
252	0xbe1ad532	-0.1512039
253	0x3d498f54	0.049208954
254	0xbdf737ec	-0.12071213
255	0xbcb3a951	-0.021931322
