weight/lstm_model.pth (torch, 340898 bytes, 41 tensors)

lstm.weight_ih_l0 f4 [128, 13]
00000000: 6aa2 e43d 933c 17bd 82d0 1c3e 6cba 10be
00000010: 3a68 ad3d 7f37 f5bd 8bdc 1bbe e30a bd3d
00000020: 1455 983d 0066 c83d 3f71 2d3e b883 113e
00000030: 294a 9b3d 142a a4bd 9366 103e 5124 853d
00000040: fe90 d23d 4064 253d 4545 3d3d 92d2 07bd
00000050: 7b40 8bbd d80f ae3d eeac a2bc a48f 233e
00000060: 9bce fb3c 3fc3 0fbe 5fc1 8d3d 27cf d43d
00000070: b2e3 133e 2cbf 1bbe 845e 1c3e c52e 0fbd
00000080: cd0b 2fbd ff9a 8fbd a743 9dbd f54d 793d
00000090: 5de0 dcbd 8b33 383d 9753 0a3e 54aa 9dbc
000000a0: dc39 1b3e 9e0c f8bd a8bf 783d d449 323c
000000b0: db01 2b3e dd80 f53d 556f a03d 6dca 8dbd
000000c0: e3db cf3d d9f0 e13d 8808 2fbe 50d7 42bb
000000d0: 6772 a83d 7a26 ab3d 32d7 223e edd0 9a3d
000000e0: d778 8b3d b201 ea3c 74d7 ac3d 32f1 2cbd
000000f0: dd53 963c 4be9 353d 59f1 7dbc 9694 6e3d
00000100: ba3b 31be 5e1b e9bd b389 d0bd 2863 30be
00000110: fa24 173e 7601 8a3d c5f0 f8bd abaa 293e
00000120: 3528 1bbd f15d cbbb ceff 70bd 9afa cbbd
00000130: 4342 763c dd80 93bc 4759 763b cf88 afbb
00000140: 7a3f dcbd a2a3 bcbd 6ae7 233e 6335 d5bd
00000150: 606d fc3c 26e3 2fbe 9ae0 7cbd 0b61 25be
00000160: 7f4e 1b3e 63d3 c6bd 9a7f 033d 1067 20be
00000170: 9302 e7bd 97e7 9c3d 8d49 5e3c de5e 2dbd
00000180: 49e2 87bd 3dcc 55bd 6d3f 0abe c10c 853d
00000190: 27d9 f5bd 7d2d 383d 4696 1e3d 17e7 243e
000001a0: b57e 14bd 14b4 023e 1807 f93d be98 d23c
000001b0: 16da e7bb b3f5 f2bb 0603 f9bc ce87 03be
000001c0: 8a73 183e 503c 5abd a3f6 8cbd a8ae 033e
000001d0: 37bb bdbd 27b2 8dbd 7c66 f33d 97a7 053e
000001e0: 72dd f4bd 385f fd3d 74a8 f43d aac4 cabb
000001f0: b857 103d a957 ad3d e141 f3bd af0f 15be
00000200: 0b85 053e fbf5 5bbd f648 c93c efff 46bd
00000210: 7a56 2bbe 8965 243d 8359 0fbe afef 2bbd
00000220: 45ab 50bd 14ce 113e b51c f43d 670a 8cba
00000230: 1c53 18be 493b 18be e72e 19be 2089 ad3d
00000240: 4f8b 12bd 3ce6 cb3d 6e93 74bc c788 373e
00000250: dd00 13be e657 2b3e a350 35bd 1edf b5bd
00000260: 0d6a 5c3d 470f 93bd b826 39bd 50a9 19be
00000270: e6d6 0fbe 926d 9f3a f534 28bd 5af4 c83d
00000280: 9de8 1a3e a718 953d 3aae bc3c 9485 ea3d
00000290: 32fe e8bd 5755 2ebe c729 893d b490 1c3d
000002a0: fe1d 1e3d 2b0b b0bd d02e 17be 056f 1dbe
000002b0: f629 803d 8989 21be e7aa ecbd b98f 283e
000002c0: 7f05 30be cc6e 193e a2ab e5bd cc39 b2bd
000002d0: 819c d33d 0ec6 103d a45d 49bd 9f96 473d
000002e0: 8e49 0abe da57 fbbd 30e0 213e e659 183e
000002f0: d9e3 5b3c 187c 013e bfdc 303e 013a 05be
00000300: 94a0 00be b680 33bd d880 c93d 8274 d93d
00000310: fba6 883d 8bcd e13c 8caa c1bd 997b 5dbd
00000320: f435 5cbd 37dd 18be a12c dcbc 8fff fbbd
00000330: 94be ebbd 5ff0 cdbd 69cf 733d 17f4 09be
00000340: 9273 2abe e367 053d ba78 a0bd 0830 f0bd
00000350: bd10 82bd 33f8 cb3c 8983 a63d 32de 883d
00000360: 0b69 bebd 0349 47bc de26 22be cb1f 4abc
00000370: a833 103e b0e7 2b3d 1235 07bd 505b 85bc
00000380: b9e8 1fbe 2c96 403d 00b7 2dbe 1d97 24bd
00000390: 4731 083c 76d8 ffbd 0d01 0bbe e32f 38be
000003a0: 1cdc 013d d848 e63d 402e 6cbc 3110 fa3d
000003b0: 2553 d93d fc52 2d3e 24e3 e53d 4958 b2bd
000003c0: 2e34 ffbd 3d54 f0bc 742f 37bd 82d7 25be
000003d0: 8e64 b3bc 5484 1ebd 20f4 a3bc 03bd 57bd
000003e0: a2c9 d0bd 0f21 23be 499b 7bbd 8ac3 df3d
000003f0: 80cd a43d 1e93 713d a866 d33d 97ac 633c
0.111637905 -0.036923002 0.15313914 -0.14133614 0.08467145 -0.11973476 -0.15220849 0.09230592
0.07438102 0.0978508 0.16937731 0.14210403 0.07582504 -0.08015838 0.14101629 0.065010674
0.10281561 0.04037881 0.04620864 -0.0331598 -0.06799408 0.08499116 -0.01985785 0.15972763
0.030738166 -0.14039324 0.06921648 0.10391074 0.14442328 -0.15209645 0.1527043 -0.034956712
-0.042735863 -0.07011985 -0.07678919 0.06086536 -0.107849814 0.04497103 0.1350845 -0.019246258
0.1515879 -0.121117815 0.060729653 0.01088186 0.16699927 0.11987469 0.07833735 -0.06923375
0.10149362 0.11032266 -0.17093098 -0.0029730387 0.082249455 0.08356948 0.15902403 0.07559381
0.06810158 0.028565262 0.08439532 -0.04222221 0.018350536 0.04441194 -0.015499436 0.05824717
-0.1730794 -0.11382173 -0.10182514 -0.17225325 0.14760199 0.0673856 -0.12155298 0.16569011
-0.03788014 -0.006206267 -0.058837704 -0.09959908 0.015030446 -0.018005783 0.0037589835 -0.005356885
-0.10754295 -0.09210898 0.16006246 -0.10410573 0.030813873 -0.17176494 -0.061737634 -0.161503
0.15166663 -0.097082876 0.032104112 -0.15664315 -0.11279788 0.0766136 0.013567341 -0.0423268
-0.06634957 -0.05219673 -0.13500758 0.06496573 -0.12004309 0.044965256 0.03871753 0.16103779
-0.03625365 0.12764007 0.12159556 0.025707599 -0.0070755584 -0.0074145435 -0.03039695 -0.12844774
0.14887825 -0.053280175 -0.0688298 0.12859595 -0.09264224 -0.069187455 0.11884782 0.13052212
-0.119563 0.12371677 0.119461924 -0.006187995 0.035239905 0.084639855 -0.118778 -0.14556764
0.13039033 -0.053701382 0.024570923 -0.04858392 -0.16732207 0.040135894 -0.1399899 -0.041976627
-0.050944585 0.14238769 0.11919538 -0.0010684252 -0.14875454 -0.14866365 -0.14959298 0.0847342
-0.035777386 0.09956023 -0.014927728 0.1792327 -0.14355798 0.1673275 -0.044266354 -0.08880447
0.053812075 -0.07180648 -0.04520294 -0.15005994 -0.14046821 0.0012163392 -0.04106613 0.09812231
0.15127797 0.07280093 0.023032296 0.11451259 -0.11376609 -0.17024742 0.066974215 0.038223937
0.03860282 -0.0859588 -0.14763951 -0.15374382 0.062580034 -0.15775122 -0.115560345 0.16461076
-0.17189597 0.14983672 -0.11214377 -0.0870243 0.10332585 0.03534513 -0.04916157 0.048727628
-0.13504621 -0.12272616 0.15808177 0.14878044 0.013421022 0.12644994 0.17271708 -0.13010408
-0.12561256 -0.04382392 0.09839028 0.10617925 0.06672474 0.02756383 -0.09456357 -0.05407295
-0.05376239 -0.14928137 -0.02687675 -0.12304603 -0.11510959 -0.10055613 0.059523974 -0.13472019
-0.16645649 0.032569777 -0.07835527 -0.11727911 -0.06350849 0.024898624 0.08130557 0.066830054
-0.09297379 -0.012163403 -0.15835139 -0.012336682 0.14082205 0.041969 -0.033009596 -0.016278893
-0.1561612 0.047018215 -0.1696434 -0.040183175 0.00831253 -0.124924585 -0.1357462 -0.17987017
0.031704053 0.112443626 -0.014415324 0.122101195 0.10611562 0.16926187 0.11224964 -0.08708245
-0.12461124 -0.029337043 -0.04472299 -0.16195491 -0.021898534 -0.038700417 -0.020013869 -0.05267049
-0.101947084 -0.1593058 -0.06142739 0.10925968 0.080470085 0.058978193 0.103223145 0.013896129

lstm.weight_hh_l0 f4 [128, 32]
00000000: 8013 bbbd 0097 1f3e e921 cbbd ff0a 79bd
00000010: 38c9 b7bc 8250 273e ded2 0f3e f68e bcbc
00000020: 7e2d 723d baef 47bd 3ee4 96bd f907 ae3d
00000030: f466 15be f302 ab3d 59ec 37be f622 a83d
00000040: efb5 353d 9dd2 813d 47d5 2d3e 7e8b f0bc
00000050: 3ef6 593d 0b40 2fbe d74a e83d 6208 fbbd
00000060: e443 9fbd 61aa ccbd 43a8 15be f738 bcbc
00000070: 3f09 bb3d 387d 9abd dfa4 7e3d b1f7 9fbd
00000080: 1794 1f3e 0d2b 12bd 934a 1abe 8c48 223e
00000090: 31c6 9c3c bed6 373e 7247 d0bd 5c76 b3ba
000000a0: 8631 043e 68bf 183e b702 1d3e 0e92 bcbd
000000b0: f155 c7bd 196c 263e 2044 ebbd 75f4 e5bd
000000c0: caf5 1f3e f565 ea3d 01f8 0eba ab34 1f3b
000000d0: 4ad4 1abe 39cd edbd 3a06 203d 5a66 12be
000000e0: b372 cabb b79f 073e 39c3 c1bc fa40 49bc
000000f0: 474a 073e 0aec aa3d ac66 8cbc e531 f03d
00000100: 12e7 d8bd 70bd 993d 57fa d7bc 97c4 93bd
00000110: 6e0f 993d 11d3 9bbc 2eb6 353e 0f56 d7bd
00000120: 327f 1e3e 1758 a4bc bf4c e13c 2904 eb3d
00000130: 3f3c f03c 264d 35be d928 90bd d128 233e
00000140: 4920 30bc 8823 23be 5654 2c3c e025 c7bd
00000150: 751f 7cbd c90c e93d c878 9c3d ebde 2a3e
00000160: 8086 b3bc 64b8 7cbd 7051 05be 0087 77bd
00000170: a137 dc3d 476f 37bd 3561 103d a03d 2d3d
00000180: a943 293e a9e4 9ebd cf75 fb3c aa9d e7bd
00000190: 0704 323e 3da6 f3bd 3927 18be 9892 8d3d
000001a0: 93a6 273e b7f6 3dbd 17ee 5cbc 0448 233e
000001b0: ffd0 5abd 4f3b 8fbd 94d9 b7bd 3c36 c13c
000001c0: 73be c93c 60d2 093e 108e ab3c db03 1abe
000001d0: 9745 73bc 620b c13d 9205 113e 7edc 59bd
000001e0: 1e34 2b3e 9178 733c 798d 913d 4eb7 98bd
000001f0: f512 42bd e065 673d f638 e03d 4756 4bbd
00000200: 8eb7 a33d 109d b03d c35e babd 3c22 1f3e
00000210: 9b80 d4bd 504e a03d 7fd1 313e 552b b83d
00000220: 36de aa3d c948 ab3c 8239 353e 68f9 22bd
00000230: 6e38 7bbd 9839 7bbb 5092 1dbd e974 57bc
00000240: 8a5e 11be 610c bcbb 1da8 29bd 3982 36bd
00000250: 175e 04be 4dd1 5ebd 3679 2ebe 223b 2dbe
00000260: 9d05 7f3d 8eb7 0c3d 31e7 f9bd a750 df3d
00000270: d69b c4bc c914 133d 2b46 9e3d c990 f2bd
00000280: 2a27 38bd 3df2 c2bc 5b2f 1fbe 1ca1 42bd
00000290: e11a 1bbe abd3 1a3d 22dc afbd a78f d5bd
000002a0: b6d4 c33d fecd 2cbe 18b6 c73d 9c2d 81bd
000002b0: e64b f0bd c333 2ebe 4689 82bc 8d0e 273e
000002c0: edb4 323e 4ac5 dabd d39c e4bd 706f 213e
000002d0: 0671 05be 9827 c0bb 178b 23be 2da1 0a3c
000002e0: 76a2 2abd adf9 4b3d 5148 923b 4457 b3bd
000002f0: 4373 bf3d 399b 07be 769c 25be e137 183e
00000300: 8307 dcbd 7715 b4bd 9b22 bebd e1e7 76bd
00000310: 5be1 f53a 2a27 393d b687 2bbe ae41 ce3d
00000320: fe46 ab3c 6470 05bd b073 dcbd a05c 203e
00000330: 5ca5 31bd 2f07 d0bc 332c 003e 570d c23c
00000340: 68ba 1c3e 46f5 9abd dfc1 0dbe fe3f 963c
00000350: 6799 043d 162b ab3d 69bc 0abe 561f 0f3e
00000360: 6305 633d b545 f23d 5afd 213e aa05 03be
00000370: 8d6c 34bd ae62 edbd 1a50 883d c86f 243e
00000380: 193a c03b 7c85 2e3d 70a9 a83b 8192 33bd
00000390: 1371 f8bd d524 10be 2b62 ffbd be40 8abd
000003a0: b9b1 9ebd 1977 61bd d648 46bd 6a72 0cbe
000003b0: 3941 2cbd fc35 00be 9cb0 18be 1d60 1f3e
000003c0: d6ac a53c 88d2 43bd 7dbe 17be 16e8 bcbd
000003d0: bd6b 4fbd a6d9 71bd 8b63 8bbc 3dba bdbd
000003e0: 3861 9cbd 9c58 ea3c b3f9 ec3c 1c05 c1bc
000003f0: 238b 1d3d 8c6c d13d 9d70 a7bb ae89 213e
-0.09134579 0.15584946 -0.09918577 -0.060801502 -0.022434816 0.16339305 0.14045283 -0.023017388
0.059125416 -0.048812605 -0.073677525 0.084976144 -0.14590055 0.08350172 -0.17961253 0.08209793
0.04436296 0.063389994 0.1697589 -0.02936339 0.05321335 -0.17114274 0.113423996 -0.12257458
-0.07776621 -0.09993435 -0.14614968 -0.022976382 0.09132623 -0.07543415 0.062168952 -0.07810915
0.15583836 -0.035685588 -0.1506751 0.15847987 0.019137474 0.17953011 -0.10169877 -0.001369189
0.12909517 0.14916766 0.15333067 -0.09207545 -0.09733189 0.16252173 -0.11487603 -0.11228267
0.15621105 0.11445228 -0.00054538256 0.0024292867 -0.15120044 -0.11611409 0.039068438 -0.14296857
-0.006178224 0.1324452 -0.02365266 -0.012283558 0.13211928 0.08345802 -0.017138802 0.117282666
-0.10590948 0.075068355 -0.026364489 -0.07215231 0.07473646 -0.019021543 0.17745277 -0.10514461
0.15478209 -0.020061536 0.027502416 0.11475403 0.029325603 -0.17705211 -0.07039041 0.15933539
-0.010749885 -0.15931523 0.010518154 -0.09724021 -0.061553437 0.11379392 0.07640225 0.16686599
-0.02191472 -0.061699286 -0.13019347 -0.06043148 0.10752798 -0.044783857 0.035248954 0.0422951
0.16529717 -0.07758457 0.030695824 -0.11309369 0.17384349 -0.11896942 -0.14858712 0.06912726
0.16372137 -0.046377864 -0.013484499 0.1594544 -0.05342197 -0.06993734 -0.089770466 0.023585431
0.024626946 0.13459158 0.020941764 -0.15040533 -0.0148481345 0.09425999 0.14162281 -0.053188793
0.167191 0.014860288 0.07107062 -0.074568376 -0.04738136 0.05649364 0.109483644 -0.049642827
0.07993995 0.08623707 -0.091001056 0.15540403 -0.10376092 0.07827437 0.17365073 0.0899264
0.083431646 0.02090873 0.17697719 -0.039788634 -0.061333112 -0.003833389 -0.038469613 -0.013150432
-0.1419622 -0.0057387804 -0.04142009 -0.044557784 -0.12926517 -0.054398824 -0.17038426 -0.16917089
0.062261213 0.03435474 -0.122022994 0.10904055 -0.02400009 0.035908494 0.07728227 -0.11844022
-0.044959225 -0.023797149 -0.15545408 -0.047516927 -0.15146972 0.03779952 -0.08586909 -0.1042779
0.09562056 -0.16875455 0.097515285 -0.063075274 -0.117332265 -0.17011933 -0.015934598 0.16314144
0.1745183 -0.10682161 -0.11162724 0.15765166 -0.13031396 -0.005864095 -0.15971027 0.008461279
-0.04165884 0.049798656 0.004464187 -0.08756879 0.09348156 -0.13242806 -0.16172966 0.14865066
-0.1074362 -0.087931566 -0.09283944 -0.06027973 0.0018759178 0.045203365 -0.16750988 0.10071121
0.020907875 -0.032577887 -0.10764253 0.15660334 -0.04337059 -0.02539405 0.1251686 0.023688002
0.15305483 -0.075663134 -0.13843487 0.01834106 0.03237286 0.08357827 -0.13548435 0.13976797
0.05542506 0.11829702 0.15819302 -0.1279513 -0.044048835 -0.11591087 0.06655903 0.16058266
0.005866301 0.04260777 0.0051471516 -0.04384089 -0.12130942 -0.1407655 -0.12469896 -0.0675063
-0.07748742 -0.05504522 -0.048409306 -0.1371552 -0.04205439 -0.12520593 -0.14911121 0.15564008
0.020224016 -0.0478082 -0.1481876 -0.092239544 -0.050639857 -0.059045456 -0.01701524 -0.09264038
-0.076357305 0.028606705 0.02892766 -0.023562007 0.03846277 0.10225782 -0.00510986 0.15775177

lstm.bias_ih_l0 f4 [128]
00000000: 178e 9bbd d770 763d bedf ac3d 9ab3 0dbe
00000010: 487b 83bd c5f3 02be 9cc9 113e 4653 49bd
00000020: 982b 8b3a 124f 98bc fe12 0b3d 5e42 12be
00000030: d952 0bbe a5f7 b03d 1c5f 1fbe 3dc7 bcbd
00000040: 591c 83bc 4389 a83c cfc0 a23d ae30 063e
00000050: 593b 22be 19aa bbbd 2889 86bd bbcb ebbd
00000060: 47c3 ae3d 6972 873d b28f e73d b3bf 86bd
00000070: a824 c03c 0bfa 6d3d fcca 873c d5af dbbd
00000080: 852d 33be 2655 17bd 1fca 14be ef66 ab3d
00000090: de3b e9bc 7be0 e9bd e200 943c 988b 1fbe
000000a0: 70ed 083e 222e 0b3c c0cd 6cbd e1ac 543c
000000b0: b730 6dbd b5b7 0cbe 47d4 b23d afd0 d43d
000000c0: 1f33 2c3d 7b5f 04be 9a19 0a3d d61a 5dbd
000000d0: a24f 203e d9ec 6c3d 7ba4 313e c206 e5bd
000000e0: 9ff8 aa3d 876f 9c3d b747 9b3d bf65 72bd
000000f0: aaba a2bd e951 903d efde b73d 4259 d9bd
00000100: 25d0 e33d e3fa fdbd e36b b4bd ae87 a23d
00000110: 303f 8fbd d14f 30bd 30d3 1b3e f5a1 1b3e
00000120: 5b4e 09bd a4a0 0c3d 0782 19be 3890 46bd
00000130: 00d4 093d c82e 32be 3ee4 6ebd 5ef3 cfbd
00000140: 4724 afbd b1df e9bd 87ef 8abb 0dea cfba
00000150: 7980 a03d feec 4e3c 0adb 0b3e 764b fcba
00000160: e00c 0d3e 29f4 893c c9c9 2f3c d924 293d
00000170: eafc 8b3b 5e96 59bd 1414 323e 89c2 90bd
00000180: 0748 b13d 3f1d 0f3d f220 143d 028e d0bd
00000190: 25f4 1f3e 3c76 24bd be85 eb3d 8807 e4bd
000001a0: b2aa 0cbe a0eb fcbd ed6f f43c 6c2d 363e
000001b0: 304c 193c 4074 aa3d 758a d93d 6648 7f3d
000001c0: d7f4 f13d ebee 16be 6d2d 33bd 756a 94bd
000001d0: 9648 78bd 30cd 84bd 17ca 8ebd 11d6 ed3b
000001e0: 9f8f 15bb a882 1f3e 6a26 4dbd d669 f9bd
000001f0: 2ab3 ef3d d07d f0bd a90d 843d e01f f4bd
-0.07595461 0.060166206 0.08441113 -0.13838044 -0.064199984 -0.12788303 0.14237064 -0.04915168
0.001061785 -0.018592391 0.03395366 -0.1428313 -0.13605823 0.086409844 -0.15563625 -0.09217689
-0.016004728 0.020573264 0.079469316 0.13104507 -0.15842952 -0.09163303 -0.06569129 -0.11513468
0.0853334 0.06613619 0.113067046 -0.065795325 0.023454979 0.058099788 0.016576283 -0.10726897
-0.17497833 -0.03694644 -0.14530228 0.083692424 -0.02847093 -0.114197694 0.018066827 -0.15580595
0.13371825 0.008494886 -0.057813406 0.012980671 -0.057907786 -0.13741954 0.08731895 0.10391366
0.04204094 -0.12927048 0.03371582 -0.05398067 0.15655378 0.057843063 0.173479 -0.111829296
0.08348202 0.0763846 0.07582038 -0.059179064 -0.079457596 0.07046873 0.08978068 -0.10612728
0.11123685 -0.124013685 -0.0880964 0.07936035 -0.06994474 -0.04304487 0.1521728 0.151985
-0.03352199 0.034332886 -0.14991008 -0.04847738 0.033649445 -0.17400658 -0.058323137 -0.101538405
-0.08551841 -0.11419619 -0.0042399797 -0.0015862599 0.07837004 0.0126297455 0.13657776 -0.0019248563
0.13774443 0.016840057 0.010729262 0.041294906 0.004272093 -0.053121917 0.17390472 -0.07068355
0.08656316 0.03494 0.03616423 -0.10183336 0.15620477 -0.04015182 0.11500119 -0.11134249
-0.1373699 -0.123496294 0.029838527 0.17790765 0.009356543 0.08322954 0.10622112 0.062324904
0.118142776 -0.14739577 -0.043744493 -0.072468676 -0.0606161 -0.06484449 -0.06972139 0.0072581847
-0.00228212 0.15577185 -0.050085463 -0.1217839 0.11704095 -0.11742747 0.06447918 -0.11920142

lstm.bias_hh_l0 f4 [128]
00000000: aab1 e83d 93ec 283e 60d1 ea3c e3aa 023e
00000010: 87f9 d2bd 8bae 06bd 99cf e83d 2b01 283e
00000020: 897e d3bd 225b 2b3e 43c0 2bbe 5020 b4ba
00000030: 39a1 2a3e eb5f f13d 6a01 e8bd ef53 113e
00000040: 9760 af3b 108b 143d 0f1f 1fbe b4fb 1ebe
00000050: 346c 63bd 46b7 c33d 9e0f ee3c b372 19be
00000060: 2559 1f3e 9d93 f23d 1257 b2bd 815b 283e
00000070: c87e 78bd 9317 29bd b89d cfbd 4876 093e
00000080: 00a5 9cbd 35b3 aabc 8a27 b43c b271 1f3e
00000090: 6140 06bd a01a b0bd fe01 0f3e e119 fe3c
000000a0: aa31 1c3c 47c5 933b 0710 aebd c973 bfbb
000000b0: 104b b03d 8cac 0f3d 3943 693d 3ba8 c63d
000000c0: 3b9b 81bc 5ba7 0d3e d559 a2bd bc91 94bd
000000d0: dacf 113d 9e8d 183e 1413 2d3e 09cc 17be
000000e0: bd75 08be 668d 013e 26c9 403b 0ae5 253e
000000f0: cca2 be3d 70eb 90bd ad62 31be 7be3 c43c
00000100: ba8b eebd 4730 f9bd 42e5 e4bd 6035 debd
00000110: 9738 00be 0207 a3bd aea6 9dbd f84e aebd
00000120: 226b ddbd ad01 82bd 0323 053e 1b1b e73d
00000130: 36e6 363e 4d21 25be 9605 52bd 24e0 9d3c
00000140: 0fd3 353c 90ca a7bd 6139 093e 934b 023d
00000150: b650 843d eb3c e8bd 03d4 c1bd 9537 27be
00000160: 1817 babd bb32 563d 5cf4 1ebe da69 acbd
00000170: 8011 44bc 44fb 103e be75 8c3c d3e3 c33d
00000180: 2f74 2ebe a362 213e 76d8 313e d876 9fbc
00000190: b019 213e 64c7 58bd 011c 0a3e 9241 0abe
000001a0: f675 c6bd 23ed debc 2456 1abe 3c23 2e3b
000001b0: b4e5 853d 9e05 06bd c3f3 d3bd cc03 c23c
000001c0: 4946 f1bd 31aa e03d 0f03 d83d a74f 6f3d
000001d0: 5007 0cbe e0cb f4bd b49e 333d f193 7ebd
000001e0: 7270 13bc b2b6 20be 5fc3 e73d 2949 c63c
000001f0: 4ac2 173e e328 16be c9ad 14be 9ac6 11be
0.11362012 0.16496496 0.02866429 0.127605 -0.103015 -0.0328813 0.11367721 0.16406696
-0.10326869 0.16733983 -0.16772561 -0.001374254 0.16663064 0.11785873 -0.11328395 0.14192174
0.0053520906 0.036265433 -0.15539192 -0.15525705 -0.055523112 0.09556441 0.029060181 -0.1498516
0.1556135 0.11844561 -0.087080136 0.16441156 -0.060667783 -0.041282248 -0.10137504 0.13424027
-0.07648659 -0.020837406 0.02199151 0.15570715 -0.03277624 -0.08598828 0.13965604 0.0310182
0.009533325 0.0045096013 -0.08499151 -0.00584266 0.08608067 0.035076663 0.056948874 0.09700056
-0.01582109 0.13833372 -0.0792729 -0.07254359 0.035598613 0.14897773 0.16901809 -0.14823927
-0.13326164 0.12651595 0.0029416769 0.16200653 0.09308395 -0.07076156 -0.17322798 0.024034252
-0.116477445 -0.12167411 -0.1117654 -0.10850024 -0.12521587 -0.07960321 -0.07697807 -0.08511156
-0.108114496 -0.06347976 0.13001637 0.11284467 0.17861256 -0.16125984 -0.05127486 0.019271918
0.011097684 -0.081929326 0.13400795 0.031810354 0.06460707 -0.11339744 -0.09464266 -0.16329797
-0.09086436 0.052294474 -0.15522903 -0.08418627 -0.011967063 0.1415835 0.017145988 0.095649384
-0.17036508 0.15760283 0.1736773 -0.019465849 0.15732455 -0.05292453 0.13487245 -0.13501576
-0.09690468 -0.027212685 -0.15071923 0.0026571294 0.06537953 -0.0327202 -0.10349228 0.023683451
-0.11780984 0.109699614 0.105474584 0.05842557 -0.13674664 -0.119529486 0.043852523 -0.062152807
-0.008998977 -0.15694693 0.11316561 0.024204807 0.14820209 -0.14664035 -0.14519419 -0.14235917

lstm.weight_ih_l1 f4 [128, 32]
00000000: 2f62 1f3d 07f6 afbd ee3e d53d 16a8 22be
00000010: 6401 9ebd 49d5 e93d 5d9b 1a3e 804b e4bd
00000020: 591d 1bbe b29b 19be 1b4a 053e 494e f9bd
00000030: 9827 7d3d 9f26 53bd fa2b 1b3d 1e0a 2fbe
00000040: a869 0c3e c40d 1b3e 39b6 263d 9eea 10be
00000050: f393 2f3b d48e 03be 5fa8 f6bc cf85 50bd
00000060: a32e f43d 1261 a9bc 1c68 f63b 7008 793d
00000070: d781 813d f615 2d3e 8cf7 213d 080d f73d
00000080: 1a0c fe3c f953 c13d 6414 7d3c 7eb1 00be
00000090: e74a 2cbe ab52 19be 7a00 263d 7142 683d
000000a0: 127f dd3d 5bd4 303e 39d9 05bd edee 263e
000000b0: 241e 0f3d 38f9 263e 27cb 80bc 873c 163e
000000c0: 6082 a4bd 11b5 29be c9d7 813d ec18 d9bd
000000d0: 0c8c 36bd 5b05 d5bc deba 0c3d bfd0 253e
000000e0: bae8 15be e2d2 1b3e fbdb 9f3b 662f 2abe
000000f0: 87e8 bdbd bd82 fe3d df72 093e 0152 c3bd
00000100: 21ed a7bd 08f9 573b 109a bfbd 41bb bd3c
00000110: 5557 b03d 88d9 ecbd d283 93bd 14ee 1c3e
00000120: cfa6 193e 00a0 14bc 41c7 debd 6f41 97bd
00000130: b9b0 a8bd 4530 2e3e 5572 d03d ca88 273d
00000140: d566 003d de81 863d f9d3 4fbd a5c9 7bbd
00000150: e343 ed3d d26b 31be 0342 2fbe 6d4d 643d
00000160: ccc9 e2bc b9c7 6abb 2f93 a1bc a377 32be
00000170: 2254 f2bd 634c d93d 9794 dfbd 5fde 59bc
00000180: b84e 6e3d 6324 033e adda 08be eb1d ca3c
00000190: bee5 b9bc e28c 803d 2e0e 2dbe 7309 69bd
000001a0: f821 bebd 67f5 b2bc d3bc 90bd 3a96 11bd
000001b0: 782d 09be 67b6 edbc b5eb f93d 8ded 2b3e
000001c0: c107 163e 8980 113e 28f3 953d ab42 243e
000001d0: fd8d d2bd 8306 a13c 9c17 f2bc 83fd c1bd
000001e0: a80f 00bd 18dd dfbd fe19 8ebb f80b bf3d
000001f0: 251b 1ebc 0e56 19be 9880 59bd e3a4 ca3b
00000200: bcf7 343e 7a31 2abe d9c9 2abe c692 b83d
00000210: ce2a 88bd 816a 833d de53 5dbd ba19 49bd
00000220: 3a4e 41bd cf27 2a3d a9b3 21be e46b 583d
00000230: bd15 60bd c1de 0f3e a998 29be 64ea 983d
00000240: b11b 03be 76bd bbbd 0d54 8c3d 9677 fb3d
00000250: 2d86 283c 1ea8 acbd 7cf7 a93d 36a1 fabd
00000260: 1c16 a8bd 0729 c7bd 6e71 1fbe 8e49 06be
00000270: a972 2c3e 74bc 7f3d ea81 77bd 315d 51bd
00000280: 5498 cc3c 5d48 0d3e 11cc 0fbd ff79 c23d
00000290: 9fbe 483d 103b 3a3d 1050 e23d ffb4 a0bd
000002a0: ec7c e43d 5cd7 99bd ccba ee3c 05e5 1bbc
000002b0: e170 173e 1807 8f3c e558 21be 0fe2 153e
000002c0: 045a 1c3e 11ba 33be 6340 ad3d d283 f0bd
000002d0: 1bd0 473d 368d 223d 3339 043d 5327 c73d
000002e0: 89a3 b6bc cfb0 1abb a312 db3d 84c6 4fbc
000002f0: 5b50 12be e845 31be 7165 90bd 39ab edbc
00000300: 83b1 813d 2dd2 c83d 7d86 6fbd 7b24 b5bd
00000310: 61a2 d7bd bbe7 1f3e e09d 1c3e c75e 1dbe
00000320: 29f9 dcbc 3724 d9bd 6170 2d3e a057 44bd
00000330: 5fb9 f03c 6efa bdbd 9cfa d33d 8c8c 033e
00000340: f6cb 313e eb5a 333e 4539 1dbe ef18 a9bd
00000350: 6b2a c73c 7d59 75bd 786c 28be 4baf f93d
00000360: f5e8 963c 1085 f13b 34d4 30bd b5c2 0bbe
00000370: 8a1f 27bd 9490 3a3d 1f24 8a3d 22ec c3bd
00000380: 3974 283e a472 673d 5443 073e 345b 2f3d
00000390: 6acb 113e 964f e73d 70a5 313d 1220 ec3d
000003a0: 177f 593d 3520 a23c 00ab 18be 5e07 17be
000003b0: 36cd 04be 6889 cfbd 2fab 98bd 5865 14be
000003c0: 89f0 013d e304 06be d39e dfbd 2345 213e
000003d0: 3ed3 0cbe d8ff d2bc 17f9 c8bd 1626 11bd
000003e0: d7b9 ebbd ddea 2f3e 9551 1b3e 55aa 02be
000003f0: cb5c f9bd 9216 8bbd 82d3 4fbc 95f7 29be
0.038911995 -0.08591848 0.104123935 -0.15884432 -0.07715109 0.11417634 0.15098329 -0.11147213
-0.15147914 -0.150008 0.1301655 -0.12173135 0.061805338 -0.051550504 0.037883736 -0.17093703
0.1371218 0.1514197 0.040701125 -0.14152 0.0026791065 -0.12847453 -0.030109582 -0.05090886
0.11922958 -0.02067617 0.007519735 0.060799062 0.06323593 0.16902909 0.03954272 0.120630324
0.03101163 0.09439845 0.015446756 -0.12567708 -0.16825448 -0.14972942 0.0405278 0.05670399
0.10815252 0.17268507 -0.032677863 0.1630208 0.034940854 0.16306007 -0.01572187 0.14671527
-0.080326796 -0.16572978 0.06339986 -0.106004566 -0.044567153 -0.02600353 0.034357898 0.16192912
-0.1463956 0.15217164 0.0048785186 -0.16619644 -0.09272867 0.1242728 0.13422726 -0.095371254
-0.081995256 0.003295483 -0.09355557 0.023160579 0.08610407 -0.11564928 -0.07202877 0.15325195
0.15005039 -0.00907135 -0.108778484 -0.07385527 -0.08236832 0.17010601 0.10178057 0.040901937
0.03134807 0.06567739 -0.050739262 -0.0614716 0.11585214 -0.17326286 -0.17115025 0.0557379
-0.027684115 -0.003582461 -0.019723503 -0.1742845 -0.11832453 0.10610273 -0.10917013 -0.013297646
0.05818054 0.12806849 -0.13364668 0.02467247 -0.022692557 0.06276871 -0.1689994 -0.056893777
-0.09283823 -0.021845533 -0.07067265 -0.035543658 -0.13396251 -0.02901764 0.12203161 0.16789837
0.14651395 0.14209189 0.07321769 0.16041057 -0.10280988 0.019656425 -0.029552273 -0.09472182
-0.03126493 -0.10930842 -0.0043365946 0.09328455 -0.009650026 -0.14974234 -0.053101152 0.006184207
0.17672628 -0.16620436 -0.16678561 0.0901237 -0.06648789 0.064167984 -0.05403506 -0.0490968
-0.047193743 0.04154187 -0.15791191 0.052837268 -0.05470823 0.14049818 -0.16562141 0.074665815
-0.12803532 -0.09166996 0.06851969 0.122786686 0.010285896 -0.08430503 0.08299157 -0.1223778
-0.08207342 -0.09724622 -0.15570614 -0.13113996 0.16840614 0.062435582 -0.06042663 -0.051114265
0.02497498 0.13797136 -0.035106722 0.09495925 0.049009915 0.045466483 0.11050427 -0.07847022
0.111566395 -0.0751178 0.029141806 -0.009515052 0.14789154 0.017459437 -0.15756567 0.14637016
0.15268713 -0.17551447 0.084595464 -0.11743893 0.04878245 0.03968545 0.032281112 0.097242974
-0.022294777 -0.0023603921 0.10696914 -0.012681607 -0.14288466 -0.17311823 -0.070505984 -0.02901231
0.06332686 0.09805713 -0.058477867 -0.08844849 -0.10529018 0.15615742 0.152946 -0.15368186
-0.026974278 -0.106026106 0.169374 -0.04793513 0.029385267 -0.09276281 0.10350534 0.12846583
0.17362961 0.17515151 -0.15353878 -0.08256709 0.024312219 -0.059899796 -0.16447628 0.121916376
0.01842163 0.0073705986 -0.043171123 -0.13648494 -0.040801562 0.045548037 0.06745171 -0.09566523
0.16450585 0.056505814 0.13209277 0.042811587 0.14237753 0.11294477 0.043370664 0.115295544
0.053099718 0.019790748 -0.14908981 -0.14748904 -0.12968907 -0.1013363 -0.07454526 -0.14491785
0.031723533 -0.13087802 -0.10918965 0.1574903 -0.13752457 -0.025756761 -0.09813135 -0.035436712
-0.115100555 0.17179437 0.1516784 -0.12760289 -0.12175902 -0.06791414 -0.012684705 -0.16598351

lstm.weight_hh_l1 f4 [128, 32]
00000000: 7a76 dcbd 57ec 09be 4917 263e 448e 2e3e
00000010: 51f6 4a3d 44df 183c c253 ddba 0831 313d
00000020: 38fa c5bd fb9f c03d b491 dc3c 2544 26be
00000030: 31d1 0d3e 44f7 1a3e 1397 a9bd 4310 313d
00000040: 267d 0e3e 6514 eebd 0b66 ffbd 8470 6c3d
00000050: 96ca f83d 096a fcbd 0db6 f13d de68 10bc
00000060: 497e 283e b28f d93d cc8c 0ebe e7a8 823d
00000070: 31c1 be3c 4830 ec3d 64c2 823d 7510 b2bd
00000080: 5316 0bbe c6b5 523d 8e2e b63c 9d66 a5bc
00000090: c47e 083e d869 a4bd b93d 9dbd 4343 833c
000000a0: 083b 9abc b951 513d 6a19 ae3d e2b1 0e3e
000000b0: faa9 38bc 4e91 0d3e 382e ac3d 35dc c43c
000000c0: ad73 a9bd af49 00bd 0d66 16be b1cc e6bc
000000d0: 40ce e63d da3b 84bb 1115 4dbd f5a4 97bc
000000e0: 1aed 1dbe 0d05 17be 633d 82bd 0475 a63d
000000f0: facf 833d 969b f6bd 35ee 143e fec7 2abe
00000100: ed36 efbd ddba b1bd 8984 fb3d fb01 fa3d
00000110: a463 b0bd 14b5 0c3e a516 103d f1ae 09be
00000120: 3639 243e d8f8 eabd 68d8 e1bb 2601 263e
00000130: 72d4 8c3d 2042 9ebd 3490 343e f166 10be
00000140: d4e4 b7bd 4da3 343d 2089 26bd 1976 ecbd
00000150: e612 123e c353 09be 49f6 7ebc 7138 28be
00000160: 5147 cabd 1040 28bd edbb 293e e60f 13be
00000170: f6bd 973d 648f c33d 4001 2e3d f953 23bd
00000180: 3d46 993b d17b 2b3e 9219 04be 2fd0 013d
00000190: 9776 253d bddc 3b3d 059b 1a3e 9660 28be
000001a0: 6636 253e e5dc 76bd 064a ec3d 0360 21be
000001b0: 47f7 10be 8991 c5bc 63a7 2d3e 4d1d 4a3c
000001c0: b1be 473c b96e b63d ca52 13be b9bb 113e
000001d0: 007b e8bd c712 103d 1014 0b3c 7d65 fb3d
000001e0: 5dec 3bbb 86f8 20bd b089 15be e7b9 5b3d
000001f0: 1d9a cfbd 3ccd b8bd daab e33d 904e e6b9
00000200: 2005 57bd 06fe 033d 2584 0fbe 04bf 6e3d
00000210: baf8 a8bb 0d41 643d 00fd eebd 88dc d8bd
00000220: 4a6a 133c 8e4a c4bd bbdb 2c3e b82a 263e
00000230: e205 b03d 6642 093e 8af8 93bd 6971 1a3d
00000240: b7d8 f03d 94b3 bc3d 0c0c 453d cd6e 11be
00000250: 96df 1dbe f31b 753b e3ff 303e 0095 35bd
00000260: 47d7 773c 5b30 abbb 34b4 39bd b3b1 be3d
00000270: e577 10be 7e48 fa3d 1c61 c5bd cdc7 1c3e
00000280: 9263 74bc 8f0f d83d 60cf 253d f4e4 c9bd
00000290: d357 db3d 8b26 813b 7b29 b63d 7954 0cbc
000002a0: 6d18 7bbd 5324 1bbe e21c 843d 1bf4 ce3c
000002b0: ae90 b93d 2dfa 34be 60a2 343d 2c5e 0ebe
000002c0: 8835 0dbd 0e61 cdbc c119 373d 3725 c1bd
000002d0: 8ba9 183e 2385 233e 604e 18be 248f bc3d
000002e0: 292f 3cbd 593b f33d 6aa8 37bc a2ab b2bd
000002f0: b500 313d 154f f7bd 819d f93c e49f 903c
00000300: 8b7d d7bd fa1b 14be ace8 a03d 57b4 29be
00000310: 20ce 9b3b 9cc4 2b3e 1b47 7dbd 1de7 13be
00000320: 5c71 febd e81a 883d ecfc 4a3c c393 063e
00000330: 93c4 d73d 030d 1dbe e985 19be 36ee ae3d
00000340: d672 79bd 479b d63c ba99 13be cf32 fb3c
00000350: e081 483d 8a0f cdbd d898 b13c 94c8 b43d
00000360: eb2b 803d 87e3 2e3b d70b 263e b260 a43d
00000370: 3178 f7bd 5a2e 20be a8e2 40bd 40fd 0fbe
00000380: 3dff 203e fa51 10bc 74ef f03d 815a 083e
00000390: 420b 1a3c 0004 15be f62f 33bd 2132 ac3d
000003a0: 00e2 23be a22f d43c b49d 793d 7516 12be
000003b0: 2ba7 973b 28ba 873d 618e 0ebe a001 033e
000003c0: 59b9 123e 3c19 d9bd 7797 fa3c 8b75 983d
000003d0: 089f 5f3d a6a1 d3bd 94cb 89bd cfc2 a0bd
000003e0: cd54 edbd c153 f73a 7430 b2bd fe3a 8c3d
000003f0: dcbc 7d3d 589f d4bd f93d b93d a6ff 07be
-0.10764785 -0.13469063 0.1621982 0.17046458 0.049551312 0.009330574 -0.0016885924 0.04325965
-0.09666866 0.09405514 0.026924945 -0.16236933 0.13849331 0.15133387 -0.08280768 0.0432284
0.13914928 -0.11624984 -0.12470635 0.05772449 0.12148015 -0.12324912 0.118023016 -0.008814065
0.16454424 0.10623111 -0.13920897 0.06379872 0.02328548 0.115326464 0.06384733 -0.08694545
-0.13582735 0.051442884 0.022238996 -0.020190531 0.13329607 -0.080280006 -0.07677788 0.016023284
-0.018826976 0.051103327 0.08500941 0.13935044 -0.011270994 0.1382496 0.08407253 0.024030784
-0.082740165 -0.03132027 -0.14687367 -0.028173776 0.11269808 -0.004035455 -0.05006892 -0.018511275
-0.15422478 -0.1474802 -0.06359365 0.08127788 0.06436153 -0.120413944 0.14543994 -0.16677853
-0.11680398 -0.086782195 0.122811384 0.12207409 -0.08612755 0.13740951 0.035177846 -0.13445641
0.16037449 -0.114732444 -0.0068922527 0.16211376 0.06876458 -0.07727456 0.17633134 -0.14101769
-0.089791924 0.04410105 -0.040658116 -0.11545963 0.14265022 -0.13410859 -0.015561649 -0.1642778
-0.09876884 -0.04107672 0.16575594 -0.14361534 0.07409279 0.09548834 0.04248166 -0.039875004
0.0046775625 0.16746451 -0.1290038 0.03169268 0.0403963 0.04586481 0.15098198 -0.16443095
0.16134033 -0.060269255 0.11537556 -0.15759282 -0.14156829 -0.024117248 0.16958384 0.012336087
0.0121914605 0.089078374 -0.1438705 0.14231767 -0.113515854 0.035174157 0.00848867 0.12275217
-0.002867482 -0.03929951 -0.14603305 0.053644087 -0.10136817 -0.0902352 0.111167625 -0.00043927552
-0.052495122 0.032224678 -0.14015253 0.058287635 -0.0051566036 0.0557261 -0.1166935 -0.10588938
0.008997509 -0.09584533 0.16880696 0.16227233 0.08594872 0.13404235 -0.072251394 0.037705813
0.11760085 0.09213939 0.048107192 -0.14202423 -0.15417323 0.0037400692 0.17285113 -0.04433155
0.01512701 -0.0052242703 -0.04533787 0.09311237 -0.14108236 0.12220858 -0.09637663 0.15310593
-0.014916318 0.105498426 0.04048097 -0.098581225 0.107101105 0.0039413623 0.088946305 -0.008565062
-0.06130259 -0.15150575 0.064508215 0.025262883 0.090607986 -0.1767356 0.044100165 -0.13903111
-0.03447488 -0.025070693 0.044702295 -0.09430926 0.14908426 0.15968756 -0.14873648 0.092069894
-0.045943413 0.11876554 -0.011209587 -0.087241426 0.043213565 -0.120756306 0.030470612 0.017654367
-0.10521992 -0.14463797 0.07856879 -0.165727 0.0047547966 0.1677422 -0.06183539 -0.14443631
-0.12423965 0.06645757 0.012389403 0.13142304 0.105355404 -0.15336995 -0.14992489 0.08541529
-0.06090053 0.026197089 -0.14414111 0.030663876 0.048951983 -0.100127295 0.021679327 0.0882732
0.06258377 0.002668591 0.16215454 0.08026256 -0.120834716 -0.15642682 -0.047091156 -0.14061451
0.15722366 -0.008808607 0.11764422 0.13315775 0.009402098 -0.14552307 -0.04374691 0.08407999
-0.16004181 0.02590162 0.060941413 -0.14266379 0.0046280823 0.06627303 -0.139215 0.12793589
0.14328517 -0.10600516 0.030589802 0.074442945 0.054595023 -0.10333566 -0.067282826 -0.07849657
-0.1158844 0.0018869565 -0.08700648 0.06847189 0.06194769 -0.10381955 0.090450235 -0.13281116

lstm.bias_ih_l1 f4 [128]
00000000: 67d3 b9bc 4686 173e 4313 1f3e 6090 aebd
00000010: 121d 1a3e dcf1 0fbe 5075 a43b 9bf3 22be
00000020: 5d55 6f3d 4c08 db3d f845 873d afb6 92bb
00000030: 17e1 16bd 111e 33be 4715 153e 1b31 5ebd
00000040: e6a0 2c3e c1aa 5dbd 17c9 293e 01af 233e
00000050: 6463 07bd d437 27be 0a5f a6bd 7354 e03d
00000060: de91 84bd aa91 33be a648 10bd bea8 21be
00000070: db84 2bbc 6504 28be b44e dabd 3641 bf3d
00000080: 70aa 99bd 876e d73d d0e0 033e ec43 a1bd
00000090: 78f8 203e 4f53 7cbd 4fac 8ebd c905 68bd
000000a0: 13da 06be 5be4 97bd 4827 1e3e 9d81 2b3e
000000b0: c692 1abe ee53 c93d 1f9b 1ebe ab17 02bb
000000c0: 65ce 3c3d 8392 6abd d233 323e 7ad0 58bd
000000d0: 555b a7bc d8b9 eabd ff61 e83d 0b50 7fbd
000000e0: 8453 223d 52b7 28bd bdc1 17be c48f aabd
000000f0: 9167 fdbd 28c9 73bc c1a8 313b a42d 1c3e
00000100: ca8d b43d 1458 233e abac 063e c1e3 243e
00000110: a51a 60bd 92dd 1ebe edf0 ebbd f915 07be
00000120: d9a6 433b ab8f 7ebc a379 073e 7cbc 00be
00000130: 9994 333e d105 923d 619f 2bbe 38fd fbbd
00000140: d3fa 523d 2c31 a3bd 585e bf3d 4019 edbd
00000150: 3fed f2bd 5a7d 753d 1d97 153e 7643 ad3d
00000160: fbd2 abbd f345 aa3b 3352 8b3c 6aea 2bbc
00000170: 18b6 fcbd ca8e 00be 5425 233e 6932 fb3c
00000180: fa15 3bbd 8c29 303e 45d9 a63c b553 09be
00000190: ffc0 313d 5906 c9bd 2f52 ebbc 434f 9e3d
000001a0: 3d2b d8bd 21ce d7bd 2d82 01be 8cf5 883d
000001b0: 3b85 2b3e ab25 20be 66aa ab3d 96f2 1bbd
000001c0: 1433 cc3c a4b4 29be bfd1 f03d caf8 df3d
000001d0: ef1b 2cbe c8bf 20bd fa90 9e3d 0c5f be3d
000001e0: 5b4d c93d 482c 9a3d 9942 18bd b015 373c
000001f0: a2e5 30be 62de c8bd d8ff fcbd 52bf f33d
-0.022683812 0.14797315 0.15534692 -0.08523631 0.15050152 -0.14057106 0.0050188676 -0.1591324
0.05843102 0.10694942 0.06605142 -0.004477344 -0.036835756 -0.17491938 0.14558898 -0.05424605
0.16858253 -0.05411792 0.16580616 0.15984727 -0.03305377 -0.1632989 -0.08123596 0.109536074
-0.064731345 -0.17536035 -0.035225533 -0.15787026 -0.010468687 -0.16407926 -0.10659543 0.0933861
-0.075032115 0.10519128 0.12878728 -0.07874283 0.15719783 -0.061602887 -0.06966459 -0.056646142
-0.13169126 -0.07416602 0.15444672 0.16748662 -0.15095052 0.098304614 -0.15488862 -0.0019850533
0.04609527 -0.05726863 0.1740258 -0.052933194 -0.020429293 -0.11461228 0.11346816 -0.062332194
0.039630428 -0.041190453 -0.14819999 -0.08328202 -0.12373269 -0.014879502 0.0027108642 0.15251786
0.088161066 0.15951568 0.13151805 0.16102506 -0.05471291 -0.1551421 -0.11520562 -0.13191976
0.0029854088 -0.015537183 0.13229994 -0.12571901 0.17537154 0.07130016 -0.16760017 -0.12304157
0.051508736 -0.07968363 0.093441665 -0.11577082 -0.11861657 0.059933998 0.14608426 0.08460133
-0.08389851 0.005196327 0.01700697 -0.0104929 -0.12339419 -0.1255447 0.15932208 0.030663686
-0.045675255 0.17203349 0.020367274 -0.13410838 0.043396946 -0.09815664 -0.028725712 0.07729962
-0.10555122 -0.10537363 -0.12647314 0.06687459 0.16750042 -0.15639369 0.0838211 -0.038073145
0.0249267 -0.16572815 0.11758756 0.109361246 -0.16807531 -0.039245397 0.07742496 0.092954725
0.098292075 0.07527977 -0.037172887 0.011174604 -0.17275098 -0.09808041 -0.12353486 0.11901726

lstm.bias_hh_l1 f4 [128]
00000000: df65 29be a713 33be 11de b73d eb06 97bd
00000010: 983b 223e 960e 13bd 8387 2b3e b822 f3bd
00000020: 9ac2 153e 99e0 063d 29b8 30bc 538b 28bd
00000030: a046 173e 3ec2 313e b3f2 233e eebd ba3d
00000040: 3308 91bd 35e3 f3bd 40a0 6bbd d6d8 be3a
00000050: 5d7a 113e e783 f5bd dd88 c7bd 438e fc3d
00000060: 5ba9 d6bd 7108 b53d 61ae 50bd 0512 05bc
00000070: 2d1d ec3d 0db9 db3d dc19 c7bd a048 5c3d
00000080: f470 e0bd b727 7bbc f0f8 3b3d a505 6a3d
00000090: 93b0 05be 469a 003d ac9d b73d 6b0c 103e
000000a0: 1a25 0cbe eaeb f3bd c66a ddbd a2ab 123d
000000b0: c7fe 0cbe 784f ff3d 64d8 f5bb 36a1 253e
000000c0: 67be 99bc 783d b23d 67d3 8fbd 76a4 2e3e
000000d0: 2d95 1ebe dfc4 b13d ffed cc3d 32d4 333e
000000e0: 00b0 06be 1888 89bd 9551 25be 99a9 30be
000000f0: bbea b63b da21 573d 4ca7 083e 76a8 2e3e
00000100: 38fc d2bc a0cd 0bbe 1de1 593d 63f3 213e
00000110: efc9 ccbd f217 69bd 6eee 2d3e a658 0fbe
00000120: 7513 91bc 6122 c2bd 0598 6d3d fd81 1b3e
00000130: bbc5 c9bd 572d c43d 3d61 1cbe a0d5 863d
00000140: d9cf 1b3e 668a 1dbe 7eb9 c03b dde2 ed3b
00000150: 761e 09bd d634 e73d 9f15 f23d 8aba 2dbc
00000160: 046f 633d 3f7f 4cbd b925 1c3e 6917 d93d
00000170: 7291 13be 248c febd 70b8 32be 1104 2a3e
00000180: 6b37 ad3d 22d9 b8bc 514a 17bd e5f5 d9bd
00000190: 7280 21bd 0835 ee3d 60ac 24be 5f75 803c
000001a0: 05bc 2c3e bba7 43bd cc7f 483d eb27 b93d
000001b0: 22a3 3f3d af60 b53d eb3d 2cbe 2782 df3c
000001c0: 4c80 4ebd feb8 be3d 2949 03bd 0449 51bd
000001d0: 7c49 b73a 70b9 f63d 9bd9 11be 3de2 343e
000001e0: ac19 b4bd 0e36 773b 9509 1dbc 4636 d03d
000001f0: 560e 8abd c234 293e 1492 bcbd a18f 0bbe
-0.16542767 -0.17487966 0.08977903 -0.073743664 0.15843046 -0.035902582 0.16750912 -0.118718565
0.14625016 0.032929037 -0.010786095 -0.041148495 0.14773035 0.17359254 0.16010551 0.091182575
-0.07081642 -0.11908571 -0.057525873 0.0014560472 0.14206834 -0.11988049 -0.097429015 0.12331822
-0.10481521 0.08839501 -0.05094755 -0.008121972 0.11529002 0.10728655 -0.09721729 0.053780198
-0.10959044 -0.015329293 0.045891702 0.05713429 -0.13055639 0.031397127 0.089656204 0.14067237
-0.13686028 -0.119102314 -0.10811381 0.035808213 -0.13769065 0.12466329 -0.0075026024 0.16174778
-0.018767549 0.087031305 -0.07022744 0.17054924 -0.15486594 0.08680128 0.10006332 0.17561415
-0.13153076 -0.06715411 -0.16144402 -0.17252196 0.0055821813 0.052522518 0.13345069 0.1705645
-0.025755033 -0.13652658 0.0531932 0.15815501 -0.09999453 -0.0569076 0.16985485 -0.1399866
-0.017709473 -0.094792135 0.058006305 0.15186305 -0.09852167 0.095789604 -0.15271468 0.065837145
0.15216006 -0.15384826 0.0058814874 0.00725971 -0.033476315 0.112893745 0.1182053 -0.010603556
0.055525795 -0.04992604 0.15248765 0.10600168 -0.14410952 -0.124290735 -0.1745317 0.16603114
0.08457836 -0.022564474 -0.036936108 -0.10642604 -0.039429136 0.11631209 -0.16081381 0.015680967
0.16868599 -0.047767382 0.04895 0.09040817 0.046786435 0.088563316 -0.16820495 0.027283741
-0.050415322 0.09312628 -0.032052193 -0.051095024 0.0013983692 0.12047088 -0.14243166 0.17664428
-0.08793959 0.0037721428 -0.009584804 0.10166602 -0.067410156 0.16524032 -0.0920755 -0.13629009

lstm.weight_ih_l2 f4 [128, 32]
00000000: aa09 cdbd 1cf7 343e abb4 67bd dee2 813d
00000010: 7b05 023e c1e2 9b3d aa69 25bd 146a 3b3d
00000020: 7d05 44bd 2437 33be 35be 4f3d bbb5 f33d
00000030: 219a 84bd e235 1abd 616d 7dbd fd6d 00bc
00000040: 85b4 2ebe 4722 cbbd ba9f 023e fa20 813d
00000050: d76a bf3d 6dbe d43c 2e27 ebbb 0a61 0f3e
00000060: 64a9 9d3c a6c6 71bd ca77 16be 5684 a3bd
00000070: 6446 163e 74fb a43d f126 28be f9b5 e9bd
00000080: 0d20 89bd 2919 29be 1c64 abbc bfce 49bd
00000090: 476d c03d e833 0d3e 05f0 bd3d 2c19 0abd
000000a0: 1066 e4bd 3e34 243e ad6e 6dbd 35e3 88bd
000000b0: 0566 89bd 667b 1b3e 78dc 00be ec17 00be
000000c0: a425 05be befc 2e3e d4a5 ccbd 3c11 d93d
000000d0: f372 4a3d 6aaf e83d d1d9 5abd 70af 403d
000000e0: 156f 0f3c 7235 09be 9b11 b83d 0ec1 843c
000000f0: 44fd 7abd 2616 25be a1b9 03be 6aee 023e
00000100: 9d4b c43d 590c a9bb 1c1a aabd 5b03 81bd
00000110: ed0f 30be c9a0 233e bf0e 283e d234 263e
00000120: 02ac 8ebd 1fc1 b43d e360 58bd d0af 59bd
00000130: 75c6 ae3d 7ce2 32be cf0f 01be 2302 21be
00000140: bb6d 2f3e 58f2 efbd dcc4 cfbd 90f6 3dbb
00000150: 8ad0 c4bb 473f 93bd 4878 a73c bc22 a0bd
00000160: 223b 7cbd 467a 87bd 08fb 873d f759 afbd
00000170: c67a 293e eb3a f93d 34ae 223e 1269 2cbe
00000180: f5a5 853d 6f6a d0bc 23bc d6bd ef3e 28bb
00000190: 00dd a33d bd82 ddbc 9878 55bd 7d18 de3d
000001a0: 4145 e1bd 25e8 04be 8743 c23d 9033 22be
000001b0: 72fe afbd 7df3 5fbd a825 193e 842d 243e
000001c0: f073 12be 695d 09be bc3d 10bd 47d5 ea3d
000001d0: 7e50 acbd 17ef a63d 55d9 a33d f3bf 29be
000001e0: f1c7 733d 83b7 be3d 2feb 4dbd 7eac 97bd
000001f0: 9978 93bd 6ceb f4bd d379 6bbc 47a5 c13d
00000200: a62b b8bd 5bc0 ce3a 60c7 8ebd b243 fcbd
00000210: 3ed3 b63d 70fd 5e3c 62b0 8ebc 833e 8b3d
00000220: cb95 2bbe 6643 e33d a0a3 03be 9651 67bd
00000230: dfaf 393d 9143 0f3e ad8a 253c acf6 673d
00000240: 73e5 cdbd 9884 253e 90f9 833d 3b01 883d
00000250: c8d0 abbc 94e7 0f3e 28c4 823d acae 21bd
00000260: 8c70 bcbc f39d 0d3e 1464 28be 63b7 9fbc
00000270: bb38 1abd 007c b0bd b481 90bb c781 273e
00000280: 2bb9 a5bc 6ef0 9bbd c12f 823d dd69 e03d
00000290: c84e 22be 7607 18be b995 ac3d 14d2 fe3d
000002a0: deea d1bd bb5a 9e3d f4b5 343e 5037 06bd
000002b0: dbfe 613d 5343 083e cb7e 203d 013f 303e
000002c0: 5342 1b3e 6d11 fe3d cfe5 ca3d bebf 493d
000002d0: ade3 a2bb e927 993d 76cb 113d 2837 fe3d
000002e0: 94c0 1b3d 9f4f 2fbe b9dc f9bd 795c 923d
000002f0: 1fed 2dbe 73b6 c7bd 2117 54bd e257 d43d
00000300: 5854 07bd ab87 003d 6365 6f3c 3cb0 8b3d
00000310: 44a3 ae3c 3b1c aa3d 467d 1f3d 82bb 8cbd
00000320: 6bb5 a2bd b4ac 95bd 6a26 b7bd e689 063e
00000330: 98d2 16bc d4b0 f53d f06a d9bd b6ab de3d
00000340: 9d0f 03be 7751 bfbd 8106 90bd 44ae adbd
00000350: 64bf abbd 0818 153d 1ca7 09bd 8b55 333e
00000360: 4c6b 47bd 4671 debd 3279 b4bd 55bb 32bd
00000370: f11b e33d f9e4 1d3e acab 1c3e 56e5 b5bd
00000380: fd02 343d 9fe9 8f3d b2c4 c6bd d53c 2c3e
00000390: 6d93 0bbe 8ada 8fbd 3f82 96bb 1bd5 bdbd
000003a0: aa91 1fbe 8087 8b3d fa69 f4bd ddb9 1b3d
000003b0: 5b05 163e 3c97 93bd b04f 10be e410 2abe
000003c0: 1042 c5bd 1068 773d db64 24be 5fab 2bbd
000003d0: 5478 fdbd c6b9 8a3c f7ab b83d 4611 da3d
000003e0: 90e1 0d3e aa32 143d 6389 0bbe cef5 573d
000003f0: 529b a8bd 7f95 18be 45e6 42bd ce5c ecbd
-0.10011609 0.1767239 -0.056568783 0.063420996 0.12697403 0.07611609 -0.040383972 0.04575546
-0.047856797 -0.17501503 0.050718505 0.11899897 -0.0647471 -0.037649043 -0.06187189 -0.007838723
-0.1706105 -0.09918647 0.12756243 0.06305118 0.0934655 0.025969708 -0.0071763014 0.14001861
0.01924581 -0.059027337 -0.14694133 -0.079842255 0.1467529 0.080557734 -0.16421105 -0.11411662
-0.06695566 -0.16513504 -0.02092176 -0.049269434 0.09395843 0.13789332 0.09274296 -0.033715412
-0.111522794 0.16035554 -0.057966877 -0.06683961 -0.06708912 0.15183792 -0.12584102 -0.12509125
-0.1300264 0.17088601 -0.09992567 0.1059899 0.04942603 0.113615826 -0.053430382 0.04704231
0.008754511 -0.13399294 0.08987733 0.016205337 -0.06127669 -0.1612173 -0.1286378 0.1278626
0.095847346 -0.0051589427 -0.08305761 -0.06299468 -0.17193575 0.15979303 0.16411875 0.16231087
-0.06966402 0.088258974 -0.052826773 -0.053146183 0.085339464 -0.1746921 -0.12603687 -0.15723471
0.17131703 -0.11716145 -0.1014497 -0.0028986074 -0.006006305 -0.071898036 0.020443097 -0.07819125
-0.06157983 -0.06615119 0.06639677 -0.08562081 0.1655074 0.12169441 0.15886766 -0.16836956
0.065257944 -0.025441376 -0.10485103 -0.0025672277 0.08001137 -0.02703988 -0.05211696 0.108445145
-0.10999537 -0.12979181 0.09485536 -0.15839982 -0.085934535 -0.054675568 0.14955771 0.16032988
-0.14302039 -0.1341454 -0.035215124 0.11466461 -0.0841379 0.081510715 0.08000437 -0.16577129
0.05951685 0.09312346 -0.050273117 -0.07405947 -0.072007366 -0.11958966 -0.014372307 0.09455352
-0.089927 0.0015773879 -0.069716215 -0.12317599 0.0892701 0.013610229 -0.01741809 0.067990325
-0.1675636 0.110968396 -0.12855387 -0.05647429 0.04533374 0.13990618 0.010103864 0.05663173
-0.100535296 0.16163862 0.06444085 0.0664086 -0.020973578 0.14053184 0.0638507 -0.03947322
-0.023002885 0.13829784 -0.16444427 -0.019496625 -0.03765176 -0.08617401 -0.004409993 0.163581
-0.020229897 -0.07614218 0.063567646 0.10957692 -0.15850365 -0.14846596 0.08426995 0.12442413
-0.102498755 0.07732149 0.17647535 -0.032767594 0.05517469 0.13306932 0.03918342 0.17211534
0.1516202 0.124056675 0.09907114 0.049255125 -0.0049709887 0.074783154 0.035594426 0.12412864
0.038025454 -0.17120217 -0.12200303 0.07146544 -0.16984986 -0.09751596 -0.05177987 0.10368325
-0.03303942 0.031379383 0.014611575 0.068207234 0.021318085 0.08306166 0.03893783 -0.06871702
-0.07944759 -0.07308331 -0.08942874 0.13138542 -0.009205483 0.11996618 -0.106161 0.10872595
-0.12798925 -0.0934171 -0.070324905 -0.08480504 -0.08386114 0.03639987 -0.033606634 0.17513101
-0.04868631 -0.10861449 -0.08812179 -0.043635685 0.11089314 0.15419377 0.15299863 -0.08881633
0.043948162 0.070269816 -0.097054854 0.1682008 -0.13630457 -0.07024105 -0.0045931633 -0.09269162
-0.1558291 0.06812954 -0.11934276 0.03801905 0.1465048 -0.0720658 -0.14092898 -0.16608006
-0.09631741 0.060401976 -0.16054098 -0.04191148 -0.123764664 0.016934287 0.09017175 0.10647826
0.13855577 0.03618113 -0.13626628 0.052724652 -0.0823275 -0.14900778 -0.047582883 -0.115411386

lstm.weight_hh_l2 f4 [128, 32]
00000000: a6f7 babd 83ad cbbd 9768 c13d fdac 653d
00000010: 4a82 33be f472 31be e3d5 15be 2d9f 11be
00000020: 15c2 fe3d 84e6 c03d ca85 32be c640 a33d
00000030: 0e2f 61bd 24b6 f13d 09a8 7b3d 0335 f0bd
00000040: 494e 033d c2d5 8f3d f00f 31be 884c af3c
00000050: 47da 3d3c 638c 343c 2f9a 15be ccc5 49bd
00000060: 67d1 33be ab16 90bd 5fd3 7ebc 40dd dc3d
00000070: d30b 31be 42e4 babd 7f4d 933d eb59 303d
00000080: f7b3 013d 313b 843d 5dd3 41bc 97bb cdbd
00000090: e389 20bd fe72 1c3d 2e10 453b fe51 263d
000000a0: b826 b0bc 3786 1abe 7a3a 1abd bcf9 a13d
000000b0: f4d7 d7bd c0a4 a1bd 5b2d a6bd 4b8f ebbd
000000c0: f747 533d 4f6e 1f3e c38f f4bd 8081 95bd
000000d0: aeee 0a3e 3273 5ebd ef23 b2bd 5dc4 13be
000000e0: de85 1abe 4d8b 39bd e2bd 1c3e 80c8 193d
000000f0: 06ca a6bd adb9 cb3c 3c45 f1bd 4218 cb3d
00000100: 295e 223e a59b 053e 7888 70bd ba01 fabd
00000110: 3ab9 013e 489c 1e3e 2465 673d d7f8 8abb
00000120: 9177 8dbd b51b 2cbe c294 8f3d 2cda 23be
00000130: 98fd bc3d a2a3 ef3d efb0 113e a7ab 9d3d
00000140: 202c d1bd e8eb 46bd a494 1b3e 73ef 8a3d
00000150: 8fa7 273e d01c 053e 1c89 1ebe dca3 1e3d
00000160: f805 52bd 10e4 353d e2d9 cf3d 2d25 2d3e
00000170: b75d 8d3d 487c f5bd 9de4 923d ea17 b63d
00000180: 9943 003e 7dab 213c f253 c43d b51b 1b3e
00000190: c292 263d 1ce8 d6bd 7a5d 9fbd e2cb 2ebe
000001a0: 936a f0b8 3219 6b3d 8cdf 063e 6c6a fa3d
000001b0: 01d0 0dbe 0d41 143d a7e5 c4bd 54df 193e
000001c0: 4832 eebd b8ee 34bd e286 04be 48d5 2abe
000001d0: 0dd6 133e 92ec f4b8 c94c a0bd e4e9 ac3d
000001e0: beda 9fbb f3b1 80bd 7803 4e3c b5ff f4bd
000001f0: e764 01be 58ed 313b 08c0 2c3e ba38 2fbe
00000200: b320 d13d 77c7 343e b462 8cbb bcaa e5bd
00000210: 840f 083e 2fb6 dabd cb71 753d 9f10 1dbe
00000220: 782d b2bd 04f3 bb3d fcbc 4c3d cbdf 753d
00000230: 5ae8 a63d f909 15be 905c 853d 56e1 a83d
00000240: dd20 0cbe b011 9e3c c6e9 d5bd 012e a9bd
00000250: d729 0b3e ad29 a6bd 40e1 d4bd 023f a03d
00000260: ef53 48bd 6e33 20be 2f04 fb3d fc4d 33be
00000270: 5d8a 05be 6c7e e23d 2eec 173e ebad 7ebd
00000280: e929 063e 1c2a ebbd c71b d6bd 2484 e33d
00000290: 1b36 ac3d 0ec4 22be c67a bfbd bc01 f23d
000002a0: dcaa 8cbd 39c9 033e 793d cabc 848c 8fbb
000002b0: d623 b23c 4c9c 8abc 9c3c 033d d005 b9bd
000002c0: 040a 8cbd 3adb c13b 7e55 0b3e 33a9 00be
000002d0: 713f 233e 25d8 11bd eab0 1ebe 9fc6 27be
000002e0: f559 b1bd 2217 e83d 3793 30be 841d 0bbe
000002f0: 9169 1f3e 26b9 02be fdd0 23be 902e 2d3e
00000300: 3806 2ebe 8b7f 2cbe 6f7a 05be acfd fd3d
00000310: 5ea2 313d f499 07be dcaf 7abd b688 79bd
00000320: 3f7c b6bd 0a21 82bd 34e3 353d 98ff 1abe
00000330: 6e39 1cbd 22b1 27be 0f81 333e ea24 bf3d
00000340: 672f 0bbe fc3f 25be eea7 823d df65 003e
00000350: df1d 42bd 4ab2 073e a65f 0dbe 85d7 2cbe
00000360: 1023 0cbc df36 333e 8247 183e 2394 dbbd
00000370: 2f68 b8bd d18c 2e3e 2726 aebc bfe3 253e
00000380: 0fa0 f43d 75a9 a9bd cf2e 6abc 868f b03d
00000390: a0d9 d03d aaaf febc f3ac 3e3d f788 053e
000003a0: bf7b 303d 66eb 313c 012f 1abe f6e9 293e
000003b0: 3943 033e 3fbf 57bd 34d5 f4bd 82bf e73d
000003c0: 28e8 06bc 8c40 21be e60c dc3c 54f5 663d
000003d0: f6ba d1bd 57a9 a2bd f288 db3d 4dc1 103e
000003e0: 26cc 863d be52 28be 5bf5 1ebe ea99 313e
000003f0: d59a ea3d 7159 0cbd e28f d93d 0618 1b3d
-0.091292664 -0.09945204 0.09443777 0.056073178 -0.1753017 -0.17329007 -0.14632373 -0.14220877
0.12439362 0.09418967 -0.17433849 0.07971339 -0.054976515 0.11802319 0.061439548 -0.11728861
0.03205708 0.07023193 -0.17291236 0.021398798 0.011587686 0.011019799 -0.14609598 -0.0492609
-0.1756035 -0.070355736 -0.0155533245 0.107843876 -0.17289667 -0.09125568 0.071925156 0.043054502
0.03166577 0.06456602 -0.011830178 -0.100455455 -0.039194 0.038195603 0.0030069458 0.040605538
-0.021502838 -0.15090261 -0.037653424 0.07908961 -0.10539237 -0.07892752 -0.081141196 -0.1150194
0.051582303 0.15569423 -0.11941483 -0.07300091 0.13567612 -0.054309078 -0.0869826 -0.14430375
-0.15090129 -0.045298863 0.1530681 0.037544727 -0.08144002 0.02486881 -0.117807835 0.09916736
0.15856232 0.13047655 -0.058723897 -0.122073606 0.12668315 0.15489304 0.05649294 -0.00424109
-0.06907571 -0.16807444 0.07010795 -0.16001195 0.09228057 0.11701132 0.14227651 0.07698756
-0.10213494 -0.04856482 0.1519342 0.067839526 0.16372512 0.12999272 -0.1548199 0.038730487
-0.051275223 0.04440695 0.1014898 0.16908713 0.0690264 -0.119865954 0.07172511 0.0889128
0.12525786 0.009867546 0.09586324 0.15147288 0.040667303 -0.1049349 -0.07781501 -0.17069963
-0.00011463943 0.057397075 0.13171214 0.122273296 -0.13848878 0.03619485 -0.09614115 0.15026599
-0.11630684 -0.044172972 -0.12942079 -0.16682923 0.14437123 -0.00011678891 -0.078271456 0.084430486
-0.004878371 -0.06283941 0.012574069 -0.11962835 -0.12636147 0.0027149525 0.16870129 -0.17111483
0.10211315 0.17654215 -0.0042842273 -0.112142056 0.13287169 -0.1067928 0.059922975 -0.15338372
-0.08700079 0.09177211 0.049984917 0.06002788 0.08149786 -0.14554586 0.065117955 0.082461044
-0.13684411 0.019295543 -0.10444979 -0.08260728 0.1359018 -0.08113418 -0.103945255 0.07824518
-0.04890817 -0.15644619 0.12256657 -0.17510217 -0.13041063 0.11059269 0.14836189 -0.06217758
0.13101925 -0.11482641 -0.10454517 0.11109188 0.08408757 -0.15895101 -0.09349589 0.11816737
-0.06868526 0.12869729 -0.024687516 -0.0043807644 0.021745604 -0.016920231 0.032040223 -0.09034312
-0.06837848 0.0059160264 0.13606831 -0.12564544 0.1594217 -0.035606522 -0.15497175 -0.16384362
-0.08659736 0.11332537 -0.17243658 -0.13585478 0.15567614 -0.12765941 -0.15997691 0.16912293
-0.1699456 -0.16845529 -0.13034986 0.124019 0.043367736 -0.13242322 -0.06120287 -0.060921393
-0.08910417 -0.06353958 0.04440613 -0.15136564 -0.038140707 -0.16376165 0.175297 0.09333213
-0.13592301 -0.1613769 0.06379686 0.1253886 -0.04739177 0.13251606 -0.13806018 -0.16879089
-0.008553281 0.175014 0.14871028 -0.10721614 -0.090042464 0.17045905 -0.021258427 0.1620016
0.11944591 -0.082842745 -0.014293387 0.08621125 0.10197759 -0.031089623 0.046551656 0.13040529
0.043086763 0.010859346 -0.15056993 0.16593155 0.12818612 -0.05267262 -0.11954728 0.11315824
-0.008234061 -0.15747279 0.02686162 0.056386307 -0.10240738 -0.07942455 0.107194796 0.14136238
0.06581907 -0.16437814 -0.15523283 0.1734387 0.11455313 -0.034264985 0.106231466 0.037864707
