weight/transformer_model.pth (torch, 29806 bytes, 15 tensors)

embedding.weight f4 [32, 13]
00000000: 46be 793e f5a7 713d 435d d5b9 8f60 50be
00000010: bf2a 4c3e 7bef 913e 4ffe c8bc cd5c 843e
00000020: f207 83bd 7a93 b23c a196 15bc d7a3 713e
00000030: a96f c83c 2040 8bbd 052e 993e abf3 27be
00000040: 5d5c 893d 8ae0 403e fb52 d8bd 4456 183c
00000050: 88c8 31bd 270b 01be d917 313e ffe3 5a3a
00000060: daf4 ce3d 33df 63be ed32 63be 8d2b 033e
00000070: f430 49be a57a 243e 669d d83d 15ed 5e3e
00000080: 6153 2f3e 757f 2cbe 075a bb3d 6111 e9bd
00000090: a357 6abe dfab cf3d ce57 06bd 4628 383c
000000a0: 5174 683d e313 293e e19c 4a3c de6a 6cbc
000000b0: c1bc 4cbd 45f3 9cbe 1663 a33d 86c9 35be
000000c0: 6c91 75be fbc0 1dbe c87b b63d 79ce c7bd
000000d0: cf0e 6e3e a5ea cabd 80ab 133d 19f6 2a3c
000000e0: bb2c 4fbe 29d2 613e 4e15 003e 500c 923e
000000f0: a311 d23d a74f ffbc fed6 a8bd d1d5 433d
00000100: 22db 8c3d 4543 643e 159d 43bd 67bd cfbc
00000110: f8d2 833e c67a 83bd c35e 6c3d 2a7f 943e
00000120: e0c0 793e b5cf 00be 554f 613d d045 2a3e
00000130: a057 c13e 69a6 e6bc 140c 91bd bef4 2fbe
00000140: e647 9dbd c3f9 3fbe 98c2 4dbe 8f75 9f3e
00000150: fbdc a0be 95df debd 8275 5a3d d40e 3e3e
00000160: 1712 853e fae6 4fbe 8a22 113d 4219 853e
00000170: 35ba 96be c864 39be f51b 0b3e ae4e 81be
00000180: 8da2 5b3e 0ad9 343c 150c ae3e 39f5 0bbe
00000190: 6fdf 15be 19ee 7a3e a1b9 f8bd ddfa d1bd
000001a0: 9e7a 1aba 1ec4 3c3e ae13 f53d c927 903b
000001b0: d1c9 85be 1394 21be 0fd3 603e 99b2 f53d
000001c0: 494d 4a3e 377d 8e3d a015 36bd 8ce8 76be
000001d0: b6d3 3abd 410e 3ebc 39ec 5bbe d174 87be
000001e0: ed61 4cbe 6efa fbbd 0bcb 9a3e f269 92bd
000001f0: d511 0e3c e3ab a53d cdc6 013e 8400 3f3d
00000200: 2828 9c3d 7172 0c3d 3c5d 86be d428 773e
00000210: fde2 6e3b fab0 e13d a1cf c9bd dd18 95be
00000220: a81a 823e 179c 54be 65c6 cbbc d83b 63be
00000230: d4d9 d9bd 803f 443e f5f0 0f3d e072 5c3e
00000240: bb71 c63d 6f38 7f3e 17e5 66bd 84a5 6abe
00000250: 7cf1 f7bd fbea c03d 8f94 8d3e e139 69be
00000260: d16d 8abe 7a69 22be 86d7 423e b365 2e3e
00000270: fdb8 713e 3eab b53d b053 5f3e d30d 563e
00000280: 5354 cebd 261f 2d3d a096 81be 2a7f 243e
00000290: daff 873e 5d5a 9138 7dd1 a4bd dda3 b4bd
000002a0: ddfa f3bd 06fd 9d3d e6fc 7d3e cee3 2f3e
000002b0: e64c 7d3e 9586 443d 303b 43be 7bb5 1fbe
000002c0: 4e30 2fbd 84fe 083d 459c 303d be6d 1c3e
000002d0: 4623 50bd 9979 2cbe 85a7 b73d c4b5 d33d
000002e0: beb1 39be 2b4c 983c 201e 41be 864e 22bd
000002f0: 9552 573e 159c 163e 8d4a 7a3e d516 92be
00000300: 3c72 543e 7713 823d af7d ccbd 6741 3abe
00000310: cfca febd 7007 643e 6b2a 71bc 49b5 a2be
00000320: 5e35 6a3e cd7f 403e 8c96 6d3d 6846 3d3e
00000330: 59ab 6a3e f3fc 3abe 339f 0abe 2801 afbc
00000340: 91e7 9c3d f64d c5bc d40b 9b3c 9ede c83d
00000350: 3197 9fbe 0b29 c23d cd10 96bc 1036 96bd
00000360: 7aab 32be 1408 d03d 9636 13be 5460 aa3d
00000370: 7fc3 843b 1e3a 39be b463 713e e135 9e3c
00000380: da06 71bd ba5f 4ebe 24f4 a4bd 80b3 353c
00000390: ecc0 f63d 06ca e4bd 58f1 d8bc fcce 4fbe
000003a0: 3f8a 463e 91b1 063e d501 e23d 0a17 19bc
000003b0: baf0 33be 3a15 163e 32c2 37be 5ce1 853d
000003c0: 0872 25be eaf0 58bd c5bf a93c a01f 89be
000003d0: 9934 7d3e 1b02 af3d d8a9 1d3e 41ff 1abd
000003e0: d52f 7e3e eb74 f0bd 3f45 3c3e 333a 2a3d
000003f0: 6b12 d93c 475f 9ebd 4a5d 2a3e d134 64bd
0.2438899 0.058998067 -0.0004069601 -0.20349334 0.19938181 0.28503022 -0.024535326 0.2585205
-0.06398 0.021798838 -0.009130151 0.23597656 0.024467306 -0.0679934 0.29917923 -0.16401546
0.0670707 0.18835655 -0.10562702 0.009297911 -0.043404132 -0.1260191 0.17294253 0.0008350014
0.101052955 -0.22253112 -0.22187395 0.12809582 -0.1964758 0.1606241 0.10576896 0.21770127
0.1712165 -0.16845496 0.09148031 -0.11380268 -0.22884993 0.10140204 -0.03279858 0.011240071
0.056751553 0.16511492 0.012366504 -0.014429776 -0.049984697 -0.3065435 0.079778835 -0.17752656
-0.23981255 -0.15405647 0.08910328 -0.097561784 0.23247837 -0.09908036 0.036052227 0.010434651
-0.20231907 0.22052826 0.12508127 0.2852502 0.1025727 -0.03116591 -0.082441315 0.047811333
0.06877734 0.22291286 -0.047757227 -0.025358869 0.25746894 -0.064199015 0.05770756 0.29003268
0.24389982 -0.12579234 0.055007298 0.16628194 0.37762165 -0.028155522 -0.07082382 -0.17183205
-0.07679729 -0.1874762 -0.20093763 0.31144378 -0.31418595 -0.10882489 0.05333472 0.18560344
0.25990364 -0.20302954 0.03543333 0.25995833 -0.2943894 -0.18104851 0.13584884 -0.2525534
0.21448727 0.011038074 0.33993593 -0.13667764 -0.14636014 0.2450489 -0.12144781 -0.102529265
-0.0005892905 0.18434188 0.11966644 0.004399274 -0.26130536 -0.15779142 0.21955512 0.119969554
0.19756044 0.069574766 -0.044454217 -0.24112147 -0.04561206 -0.011600078 -0.2147683 -0.2645631
-0.1995923 -0.12303625 0.30233034 -0.07149114 0.008671244 0.080894254 0.12673493 0.04663135
0.07624847 0.034288827 -0.26243007 0.24136668 0.0036451214 0.11020084 -0.09854055 -0.29120532
0.25410962 -0.20762669 -0.024874875 -0.22190797 -0.106372505 0.19164848 0.035141904 0.21528196
0.09689661 0.24923871 -0.05637082 -0.22914702 -0.12106606 0.09419819 0.27652404 -0.22775985
-0.27036908 -0.15860549 0.19027528 0.17030983 0.23605724 0.088705525 0.21809268 0.20903711
-0.10074677 0.042266034 -0.2531023 0.16064134 0.26562387 6.93097e-05 -0.08047769 -0.08820317
-0.11913083 0.07714276 0.24803504 0.17176744 0.24736366 0.04797991 -0.19065547 -0.15596573
-0.042770676 0.03344585 0.04311778 0.15276238 -0.05081489 -0.16843261 0.08967499 0.103374034
-0.1813421 0.018591007 -0.18859148 -0.039625667 0.21027596 0.14707978 0.24442501 -0.28533044
0.20746702 0.06351369 -0.0998491 -0.18189012 -0.124410264 0.22268462 -0.014719586 -0.31778935
0.2287192 0.18798752 0.0580049 0.18483889 0.22916926 -0.18260555 -0.13537292 -0.021362856
0.07661355 -0.024085026 0.018926539 0.09808086 -0.31170037 0.094804846 -0.018318558 -0.0733453
-0.17448226 0.10157791 -0.14376292 0.083191544 0.0040516253 -0.18088576 0.2357319 0.0193128
-0.058844425 -0.20153704 -0.08054379 0.011090159 0.12048516 -0.111713454 -0.02648227 -0.20293802
0.19388674 0.13153674 0.11035506 -0.009343872 -0.17572299 0.14656535 -0.17945173 0.065371245
-0.1615678 -0.05296413 0.020721326 -0.2678194 0.24727096 0.085453235 0.15396821 -0.037841085
0.24822934 -0.1174105 0.1838579 0.04155941 0.02649804 -0.077330165 0.1663715 -0.055714432

embedding.bias f4 [32]
00000000: 1a96 da3d 79e2 6ebe 7124 a73b e204 5ebe
00000010: 8b9c 1d3e d687 353e cdf7 ecbd ce79 4f3e
00000020: bc16 363e 5932 13bd 1306 24be 0439 6c3e
00000030: 0cf9 273d d27b dbbd a870 90be 7d09 13be
00000040: 634a 9d3c e8b1 74be d522 79be 7a68 103e
00000050: 8b48 113e 751e 103d 3b2d a5bd 8194 8a3c
00000060: c691 22be aa08 0ebe 8905 4abe 6aa2 223d
00000070: 0ad8 47be 21c8 913e 7947 1ebe dfb0 8d3e
0.10673161 -0.2332858 0.0051007797 -0.2168155 0.15391748 0.17727599 -0.11570702 0.20261309
0.1778211 -0.035936687 -0.16017942 0.23068625 0.041008994 -0.10716976 -0.2821095 -0.14359088
0.01920051 -0.23895991 -0.24329694 0.14102355 0.14187829 0.035185296 -0.08065268 0.016916515
-0.1587592 -0.13870493 -0.19728674 0.03970567 -0.19516006 0.28473 -0.15456952 0.27674004

transformer_encoder.attention.in_proj_weight f4 [96, 32]
00000000: 5f33 79be 9ca2 4e3e f3b6 d73d 1ea0 af3e
00000010: 3fca fc3b 199c b5be be83 163e 347c 7ebe
00000020: 2615 c8be 1560 f1bd dcf3 cb3e b427 c5bd
00000030: 76cd 8b3c 9ec2 d5bd 7af1 3e3e 213f 3d3e
00000040: 0608 df3e 89af 8d3d cc14 a33e 7df8 d8be
00000050: e640 0fbe ed4c babc a239 c83d b79f 493e
00000060: ddf5 3bbe 3adc 823e 6766 8c3d 68e8 5fbe
00000070: 6c46 f53d a0c3 e7be 0f86 e23d 10d9 6c3d
00000080: 6e3a 31be 2710 9c3e 4a5f e93d ae05 9e3e
00000090: 2bfe 23be 0bb4 173c 73ba e53b e26c 5d3d
000000a0: c756 a4be f441 603e 0eda 863e 2d18 6fbe
000000b0: be60 4abe 463a 98be 5e1a 443e 52c2 73bc
000000c0: 1d4a 033c 5307 a03d 75d9 bd3d d5a7 9fbe
000000d0: b285 afbd dfa8 1bbe db7d 2a3e cc89 b93e
000000e0: 03e1 02be b896 993e 2054 ad3e 2e4d 41bd
000000f0: 9890 a1bc 298f 91bd 2b76 2a3c 8552 d03d
00000100: 06c8 f5bd 69f2 513e 38f6 603e 8225 363e
00000110: 5692 b3be b9ae 58be e236 a33e a3ca c3be
00000120: d510 ddbe 2ed5 04bd 44ac a03e c17a b8be
00000130: 2ca4 8abe a3c5 8dbe d296 b1bd ff70 953e
00000140: 5eea 963d ab07 cf3e 8dcb b23e 46b1 8ebe
00000150: 393a d3be 868c 02be 1014 3e3d 3633 9d3e
00000160: d560 b3be dede 2a3c fda3 9a3e a446 9dbe
00000170: a4d7 d53e 4652 62be 1e0f 7b3e e66e 283e
00000180: bb3a 8d3e 5052 04be 6faa ccbe 5854 88be
00000190: 15ee a53d 72d7 b83e 1ead 78bd d069 5d3e
000001a0: f312 5b3d 9221 1ebe 6342 c8be e338 833e
000001b0: 30e9 bc3d 0321 c73e 5425 62bd 5205 a4be
000001c0: 0ee7 0fbe 9986 b7bd 1545 aebe 044b 023c
000001d0: 1520 bb3d dfb6 823e 7754 d4be 2da5 14be
000001e0: 36b5 ae3e 6569 8dbe 6e02 83be d88b a23d
000001f0: fc87 f7bd bd3e b73d 6671 debd 3c62 c03d
00000200: 6b1d a83e c606 abbe 639d ccbe ac56 02bf
00000210: 6139 d03d ab84 dc3e b67f 93be bca0 9b3e
00000220: 6009 583e 571b 43be 5db8 94be 6a3f 1d3c
00000230: efa0 c33e c41d e93d 8ddb 1ebe bc6d bfbd
00000240: 71b6 5fbe 221b a5be b625 cabe 5b38 e03e
00000250: 0ec4 143e d435 073e f660 77be e797 98be
00000260: 6f8a 6f3e 7922 11be af47 44be 87fb 153e
00000270: 94f9 d0be 5d55 e73e f49e 03be 0b1f 6dbd
00000280: c969 d63e 08b9 85bc 81f1 98bd 2187 a7be
00000290: 70eb 6c3e 9f92 1b3e 7e26 9dbe f2cf 283d
000002a0: 3320 883e bc32 24be 4ac5 c6bd 514f 063e
000002b0: 3844 b63e 1d14 b03e 357c 3ebe 77bd fd3d
000002c0: e911 81bd 1969 8cbe 6a75 52be 4b34 5a3d
000002d0: 667b cf3e b252 873e 7e7b 3cbe 41ff 9dbe
000002e0: 3e4a 1e3d 5bbc 2fbe 577d a7bd b14a b03e
000002f0: 87d0 6fbd 7bed ae3d f9f6 95be 4902 2b3d
00000300: 5629 a6be 04b5 743d 14a5 a93e 03bd e63e
00000310: 8dbf 3bbe afb9 38be b8a7 3abd af05 f7bd
00000320: f776 5dbe b0d3 18bd d457 fd3d ea2e 2a3b
00000330: 421b 9cbe c42f 5bbe dafd 0dbe 3635 07be
00000340: 00c1 2f3e f19a a53c 80a6 c33d b055 76be
00000350: 88f2 57bd 02b8 a6bd a636 983c 5162 ff3d
00000360: 9443 ccbe ca78 6bbc b135 cdbb c115 99be
00000370: 1d67 a43e 49de 8fbe 81a6 d63e f560 cd3d
00000380: e567 94be b35f 3e3d fea8 a23e 4147 943e
00000390: 9dd2 adbe a97a 1bbe a681 ac3e 536b e8bc
000003a0: be0b 5abe b65c e03c d389 1d3e ee9b 97bd
000003b0: 0eeb 32be 2b74 b0be 9ddc 9ebc fb1e 03bd
000003c0: b6bf 4c3e ce94 c43e 713d 9a3e b8b1 85be
000003d0: cdf5 68be 8d45 9f3d 65ec d03e aba1 be3e
000003e0: f268 70be 5d5c 703c 68d2 ac3e 3e24 81be
000003f0: 2b34 7d3e 56d5 e1be 0c4d 423e bcde 81bd
-0.24336003 0.20179218 0.10532942 0.34301847 0.0077145393 -0.35470656 0.14698693 -0.24852067
-0.39078635 -0.11785904 0.39834487 -0.096267134 0.017065745 -0.10437511 0.18646803 0.18481113
0.4356081 0.06918246 0.31851804 -0.42377082 -0.139896 -0.02274176 0.097766176 0.19689833
-0.18355508 0.25558645 0.06855469 -0.21866 0.119763225 -0.45266438 0.11060726 0.057824194
-0.17307445 0.30481073 0.11395128 0.30863708 -0.16014926 0.009259234 0.007010752 0.054058917
-0.32097456 0.21900159 0.26338238 -0.23349066 -0.19763467 -0.2973196 0.19150683 -0.014877873
0.008013275 0.07813897 0.09269992 -0.31182733 -0.08570422 -0.15201138 0.16649573 0.36237943
-0.12781148 0.29997802 0.33853245 -0.047192745 -0.019722268 -0.07107384 0.01040415 0.10171989
-0.12001042 0.20502628 0.21968925 0.17787746 -0.35072583 -0.21160401 0.3187781 -0.38240537
-0.43176904 -0.032429866 0.31381428 -0.36031154 -0.27078378 -0.27689847 -0.08671345 0.29187772
0.07368921 0.40435538 0.34920922 -0.27869624 -0.41255358 -0.12748918 0.04640585 0.30703133
-0.35034814 0.010429112 0.30203238 -0.30717957 0.41766083 -0.22101697 0.24517485 0.16448554
0.2758387 -0.12922025 -0.3997378 -0.2662685 0.08102051 0.36101872 -0.060711972 0.21622396
0.05348487 -0.15442494 -0.3911315 0.2562934 0.092241645 0.38892373 -0.05521138 -0.3203531
-0.14052984 -0.08961219 -0.3403708 0.007952455 0.091369785 0.25530145 -0.41470692 -0.14516135
0.34122628 -0.27619472 -0.2558779 0.07936829 -0.12086484 0.08947513 -0.10861473 0.09393737
0.32834944 -0.33403605 -0.39963827 -0.509135 0.10167194 0.43069968 -0.28808373 0.30396068
0.21097326 -0.19053398 -0.29046908 0.009597639 0.3820872 0.113826305 -0.1551344 -0.09347102
-0.2184694 -0.32247263 -0.39481896 0.43792996 0.14527914 0.13204128 -0.24158081 -0.29803392
0.23392652 -0.14173307 -0.1916797 0.14646731 -0.40815413 0.45182315 -0.12853605 -0.057890933
0.41877583 -0.016323581 -0.07467938 -0.32720283 0.23136687 0.1519265 -0.3069343 0.041213937
0.26587066 -0.16034979 -0.09705599 0.13116194 0.35598922 0.34390345 -0.18602069 0.12389653
-0.06302244 -0.27423933 -0.20552602 0.053272527 0.40523833 0.2643028 -0.18406484 -0.30858806
0.03864502 -0.17161696 -0.081782036 0.34431985 -0.058548477 0.085413896 -0.29289988 0.041750226
-0.32453412 0.059742942 0.33133757 0.4506608 -0.1833479 -0.18039583 -0.045570105 -0.12061631
-0.21627413 -0.037311256 0.123702675 0.0025967904 -0.30489546 -0.2140494 -0.13866368 -0.13203892
0.17163467 0.020215483 0.09553242 -0.24056125 -0.05272153 -0.081405655 0.018580746 0.12469924
-0.39895308 -0.01437206 -0.006262504 -0.2989941 0.3210992 -0.28099278 0.41923907 0.10028259
-0.28985515 0.046477985 0.31769556 0.28960612 -0.33949748 -0.1518351 0.33692664 -0.028371489
-0.21293542 0.027387958 0.15384607 -0.07402788 -0.17472479 -0.3446363 -0.019392306 -0.032011967
0.19995007 0.3839478 0.30125 -0.2611215 -0.22750016 0.07776938 0.40805355 0.37232718
-0.23477533 0.014670459 0.33754277 -0.25222963 0.24726932 -0.44108075 0.18974704 -0.06341311

transformer_encoder.attention.in_proj_bias f4 [96]
00000000: 134e 58be b624 14be 6eac 78be e912 413e
00000010: cdb9 803e f8ad 643e 203c 35be 4b7a 5abe
00000020: eec3 a33d 0fd3 c73d a77e c8bd c16d edbd
00000030: 3421 c43d 67c4 e93d a05d 8b3e 37c1 b23d
00000040: 7429 a3bd e1ea 293e 30ca b33d 2d4d 3b3e
00000050: a4de efbd b789 48be 8aae f53d 312e 033e
00000060: 3ef5 a3bd 05e0 b63d f06a 90bd 9993 0d3e
00000070: 442d bb3d 4c5e 6dbc a9fb 203d 4385 ddbd
00000080: a032 aab9 a30f 87ba 1e8b 2bba 3b78 b43a
00000090: cf98 3e38 4d78 8b3a 7da8 38ba a201 aab9
000000a0: fd46 b039 7df8 a3b7 9490 beb8 c513 20b9
000000b0: a418 473a 627c 043a c3b8 263a 9062 39ba
000000c0: 2271 df38 670d acb5 9ec8 52b9 7657 38b9
000000d0: 16d1 d6b9 a58d d7b9 5f91 ea38 c1ed b939
000000e0: 2df0 4b38 b4f0 29b9 0355 eab8 09bb dd37
000000f0: 1c6d b138 28ea 89b8 4f0a 4bb8 0345 2d39
00000100: a391 81ba 4fae af3c 2885 c6bb c24c 61bc
00000110: a32e 8ebc 16b7 10b9 7343 3a3b 4822 cfbb
00000120: 0a2f e8bb 6211 62bc 4f3a 373b fdd2 b43c
00000130: 4e5a e33a 01cf 7dbc 3e65 93ba 1e37 c53b
00000140: 92ae c5ba 429c 593c 921c 813c a39a cd3b
00000150: 72fc 48bc bc65 9c3b ea7a 28bb b0c7 e8bb
00000160: aa7a 03bc acc3 d0bc b74a e03c cfea 98bc
00000170: 07a8 803c f7d7 a8bb 01a4 7d3b 31e1 a73c
-0.21123533 -0.14467129 -0.24284527 0.1885487 0.25141755 0.22331989 -0.17698717 -0.21335714
0.07996355 0.09757053 -0.09789782 -0.115931995 0.095766455 0.11414414 0.27219868 0.08728259
-0.07966891 0.16593505 0.087787986 0.18291159 -0.11712387 -0.19583784 0.11996181 0.1281059
-0.080057606 0.08929447 -0.07051647 0.13825835 0.09139493 -0.014487814 0.0393025 -0.10816433
-0.00032462645 -0.0010304343 -0.00065438624 0.0013768742 4.5441844e-05 0.0010640711 -0.00070441497 -0.00032426143
0.00033622226 -1.9546826e-05 -9.086836e-05 -0.00015266154 0.00075949193 0.0005053935 0.0006359929 -0.0007071877
0.00010654541 -1.2818899e-06 -0.00020101896 -0.00017580189 -0.00040973042 -0.0004111353 0.00011185067 0.0003546309
4.8622653e-05 -0.00016206765 -0.00011173824 2.6432348e-05 8.460341e-05 -6.576284e-05 -4.8408572e-05 0.00016524275
-0.0009885322 0.021445422 -0.006058354 -0.013751211 -0.017356222 -0.00013801115 0.002842155 -0.0063212253
-0.0070856856 -0.01379809 0.0027958339 0.022073263 0.0017345638 -0.015491248 -0.0011245382 0.0060185334
-0.0015081933 0.013281884 0.015760694 0.0062745376 -0.012267219 0.00477287 -0.0025708028 -0.0071038827
-0.008024851 -0.025483929 0.027379377 -0.018666653 0.015705122 -0.005152698 0.003870249 0.020493122

transformer_encoder.attention.out_proj.weight f4 [32, 32]
00000000: 414a 86be dc81 03be b2dd 95bd 623b 1abe
00000010: 7804 2c3e 9b79 003e 1e8f 233e 0e15 80bd
00000020: cd16 90bd 08f6 a2bd 8aed b53c c804 a13d
00000030: f973 bebc 0bac afbd dda0 08be 07a8 d0bc
00000040: dccc 1bbd d915 ce3d e44b 323d a73b d2bd
00000050: 61a5 01bd 4f84 2e3e 8b99 1abe bb5b 5bbd
00000060: ab9c 0f3e d6c9 cfbd d7b5 85bd 2913 1dbe
00000070: dc70 2cbd 59d5 a43d 1839 febd eb92 a8bd
00000080: dfa8 72bd f32f fa3d d4c0 54bd 713c ebbd
00000090: 986c 383d 4c16 babd 16b9 f53d 04b6 1ebe
000000a0: e925 9c3d 69d0 3a3e d4c0 443e 6d4e 21bb
000000b0: 4b81 9bbd 85a2 9f3c 1198 95bb 841d 3a3d
000000c0: a68f 8ebd 2cdc 1c3e 9028 0b3e 68c8 733d
000000d0: ef98 febc 7a8c 33bd 806f 1a3e 6c83 7c3b
000000e0: 3bff 1e3e e076 20be 0c1e d6bd 303e 3abd
000000f0: 5968 063e 305a 85bd 7bc5 3dbe f384 22bd
00000100: 7fdc 893d 3a2b 423d 4df6 03bd 3cb6 623d
00000110: 1ae0 6d3e 1eb5 c6bb cd07 1c3d b96b cbbd
00000120: 3f9f 5a3d 63b5 713e 5b99 b93d d5a2 dabd
00000130: cc4e 493d 394b bd3d 876e de3d 45bf 2f3c
00000140: 3455 dc3d e1a3 0dbe 9c21 30be 0a67 95bd
00000150: d3a8 c2bc ff37 c73c 307a 5ebc 8abe cbbd
00000160: b968 e83c ed6d 00be 89e8 86bc 5445 263e
00000170: a2ba e8bd 34b7 d33d 8913 e23d 144e f1bc
00000180: 2e25 8ebd c99f b33d da6f 5abd f2a6 903d
00000190: e292 05be b423 143d d9a2 c0bd cd53 023e
000001a0: 73b0 5b3b cef1 693e ab61 253d 4de4 a63d
000001b0: 6299 02bd 36c6 173e 13d3 31be 4ffa 313e
000001c0: 62a2 9e3c bfee f7bc d185 203e acc4 e83d
000001d0: 1008 ee3d 9e3d ed3d e510 3ebd addd 083d
000001e0: b3e9 123e 79c2 2f3e 6a2d f1bd 0dbf 233e
000001f0: 1d46 ef3d b0fb 3a3d c40d 00bd 99f2 e9bc
00000200: 6a07 003e 48cb 10be df39 1d3d d3e6 b8bd
00000210: 87d7 333c 1f93 a1bc 0bbd 1dbd 4750 01be
00000220: 9bdd a9bd 4d31 8c3d 7a71 2abd 970c 853d
00000230: 361d 60be 9112 a4bd 2ea8 78be f7a3 35be
00000240: ee1c b53d 2827 06be 803f 2b3e 21a7 4fbc
00000250: 26e8 c73c d50f dbbd 5097 e63d 9ae4 1ebd
00000260: c311 7cbd 0b0f aebd 56fe cb3d 651d 01bd
00000270: 54cd c43d 8bda c83d 63db 403b 3483 93bd
00000280: e05f b43d f52d 2d3e 4802 183d d675 1d3d
00000290: 3dba 33bd 7904 cb3d 4e8e 953d 5558 c0bd
000002a0: 9bcf a1bd ad5b c63d aaef 26bd ef8e d0bc
000002b0: c353 cf3d e929 61bc d1a1 b4bd a4d7 723d
000002c0: d51f 62be e520 cebc 0aca 95bd d81b fcbd
000002d0: 85ec 8c3c 8b56 c23d 8d99 04be 5d0a 0bbd
000002e0: e09f 293d 47bd 12be 9cb5 0b3e c266 4abe
000002f0: 2c2b 4fbd 5881 173e 72d4 153d 2e65 3e3d
00000300: b529 f63d 6512 9a3d f9c5 04be 26ba 983d
00000310: 5bf7 36be 512e bdbd f012 3a3e b286 e3bd
00000320: e7e7 d5bd 76cf d3bd 8bfb 423e 9a94 5c3d
00000330: e0ea 1e3e 7581 cebd 5cd9 c33d aa34 08be
00000340: c20f a2bd 3d1a 343d 2a7f 003e a8ba d1bd
00000350: 6ec3 c33d e42a 623d facf c5bd 1db3 b13d
00000360: b119 003e 64f4 1e3d bfb8 2cbd dd02 9bbd
00000370: d368 ab3d e525 923d d9ee 873c 2e28 19be
00000380: 19fc c53d 817d b93d 3283 bdbc d8ec 2e3e
00000390: 24a3 593c 7036 e53d 1610 2d3e f926 1cbc
000003a0: 01a1 db3a 5762 773e 2bd0 063e 1eb9 80be
000003b0: e41e 763d 9a9e e6bd 6cdd cfbd 547c 1cbe
000003c0: 9d6a 58be f958 0ebe 5f7c 08be 890f 3a3d
000003d0: 3677 00bd 9361 1b3d afcd 0e3d 019a 77bd
000003e0: feb9 f23d 0fae 6a3d 1922 1abe f480 e23b
000003f0: 64de 873b a809 993d 1d25 6e3d 535b b3bb
-0.26228526 -0.12842506 -0.07317676 -0.15061715 0.1679858 0.12546389 0.15972564 -0.06254016
-0.07035599 -0.07957083 0.022207994 0.0786224 -0.02324866 -0.085777365 -0.13342614 -0.025470747
-0.038037166 0.10062761 0.043529406 -0.10265284 -0.03165186 0.17042659 -0.15097634 -0.053554278
0.14024608 -0.10145919 -0.06528824 -0.1533934 -0.04209982 0.08048505 -0.124132335 -0.082311474
-0.05924308 0.12216177 -0.051941708 -0.11486138 0.045025438 -0.09086284 0.11998193 -0.15499121
0.07624418 0.18243565 0.19214183 -0.0024613396 -0.0759302 0.019486675 -0.004565247 0.045438305
-0.069609925 0.15318364 0.13589692 0.059517294 -0.031078784 -0.04383514 0.15081596 0.0038530482
0.1552705 -0.15670347 -0.1045495 -0.045469463 0.13125743 -0.065113425 -0.18532364 -0.03967757
0.067315094 0.047404505 -0.032217313 0.055349573 0.23230019 -0.0060640713 0.038093377 -0.09932656
0.053374525 0.2360435 0.09062453 -0.10675589 0.049147412 0.09242863 0.10860925 0.010726755
0.10758439 -0.13832046 -0.17200321 -0.07295044 -0.023762142 0.024318693 -0.013578936 -0.09948452
0.028370248 -0.12541933 -0.016468303 0.16237384 -0.113637224 0.103376776 0.11038882 -0.029456176
-0.06940685 0.08770711 -0.053329326 0.07063092 -0.13044313 0.03616686 -0.09406061 0.1272728
0.003352192 0.22846147 0.040376347 0.08149014 -0.03188456 0.14821705 -0.17365675 0.17380641
0.01936454 -0.03026521 0.15676047 0.11365637 0.116226315 0.11584018 -0.04640283 0.03341453
0.14346962 0.17164029 -0.1177624 0.15990849 0.11683295 0.045650184 -0.031263128 -0.028558062
0.12502828 -0.14140046 0.03838527 -0.09028401 0.010976679 -0.019723473 -0.038510364 -0.1262828
-0.08294221 0.06845341 -0.041612126 0.06496542 -0.21886143 -0.08011354 -0.24282905 -0.17738329
0.088434085 -0.13100874 0.16723442 -0.012674124 0.02440269 -0.10696379 0.11259329 -0.03879223
-0.061540376 -0.08498963 0.0996062 -0.031522173 0.09609476 0.09807309 0.002942764 -0.072027594
0.08807349 0.16912062 0.03711155 0.038442455 -0.043878783 0.099129625 0.07302533 -0.09391848
-0.07900926 0.096854545 -0.040755905 -0.025458781 0.10123398 -0.013742902 -0.088199265 0.059287682
-0.22082455 -0.02516217 -0.073139265 -0.12309998 0.017202625 0.09489163 -0.129492 -0.03394543
0.041412234 -0.14330016 0.13643497 -0.19765761 -0.05057828 0.14795434 0.036579557 0.04648321
0.12019674 0.0752304 -0.12966146 0.0745738 -0.17867796 -0.0923735 0.18171287 -0.111096755
-0.104446225 -0.103423044 0.19041269 0.053852655 0.15519285 -0.10083286 0.095629424 -0.1330134
-0.07913162 0.043970335 0.12548509 -0.1024068 0.0955876 0.055216685 -0.09658809 0.08676741
0.125098 0.038807288 -0.042168375 -0.075689055 0.08369603 0.07136134 0.016593384 -0.14956734
0.096672244 0.09057141 -0.023133848 0.17082536 0.013283525 0.11192024 0.16900668 -0.009530776
0.0016756357 0.24158607 0.13165347 -0.25141233 0.060088053 -0.112607196 -0.10149655 -0.15281802
-0.2113442 -0.13901128 -0.13328694 0.04542497 -0.03136369 0.03793485 0.034864124 -0.060449604
0.118518814 0.0572949 -0.1505207 0.006912345 0.004146384 0.07472545 0.058140863 -0.005473533

transformer_encoder.attention.out_proj.bias f4 [32]
00000000: c7bd 00bc f925 4b3c 7dd1 9dbc 7e48 a9bc
00000010: 02ae bc3c 9ec4 623c d6ca 62bc 625f a0bc
00000020: be3e 813b 7821 643c 6b3f 053c d52d 7fbb
00000030: 1172 87bc 3e93 d83b d5c7 0cbc f2f3 243c
00000040: 2307 983c ca7d 1c3b cd7d 6b3c ce4e 503c
00000050: 8823 99bc 723b 0cbc e051 453c f78f b53c
00000060: fed0 94bc 83d7 58bb 4c07 673c 9f7f 0cbd
00000070: 3c12 51b9 b320 17bc 9fda 00bc 0c41 263c
-0.007857746 0.01239919 -0.01926493 -0.02066445 0.023032192 0.0138408225 -0.013842305 -0.019576732
0.003944247 0.013923995 0.008132796 -0.003893723 -0.016533883 0.0066093495 -0.008592566 0.010067927
0.01855809 0.0023878687 0.014373255 0.012714101 -0.0186937 -0.008559095 0.012043446 0.022163374
-0.018166061 -0.003308744 0.014100861 -0.034301396 -0.00019938586 -0.009224105 -0.007864623 0.010147344

transformer_encoder.dense_proj.0.weight f4 [16, 32]
00000000: 8932 d3bc 34c6 53be 0211 0abe d619 0ebe
00000010: a2d8 363d 5abb 96bd db5a c73d 2a79 123c
00000020: 5808 463c 8834 24be 39cd d73d 91be 5a3e
00000030: 9303 74be 997a cf3d f1a0 0bbd 9589 fcbc
00000040: f5fd e13d 4bd0 3dbe 6721 54bc 4bea 853c
00000050: ebd1 8d3c b186 4dbe 9d9a 103e 575e c7bd
00000060: a51f f0bd c98d b7bd cebc 51bd eafb e1bd
00000070: 2b42 45be 35cc b8bd 65e2 273a 0e0d 163d
00000080: 79fa bbb9 b6fc d7bd aed1 c6bd cb40 a3bd
00000090: 8662 0f3e 82c7 dabc aec8 723c 79e2 263d
000000a0: e51b 1e3e b21b 88bd f1ed 8b3c 3d6b 8ebd
000000b0: b303 febd f3cb c1bc ab29 adbd 1bce 4a3d
000000c0: 4ea7 27bd 62b6 8ebd 2334 15be 4a52 7b3d
000000d0: 22ce 60be 968a 1bbc c992 cc3d 8166 84bd
000000e0: 3508 31bb 269f 82bd 4fd9 543e 1c16 da3c
000000f0: 00d1 fa3d 55bc 9ebd d7f9 0a3e f4ba 69bc
00000100: 74be 053e 8bca 21be ee8f fe3d f264 b1bd
00000110: 34bc 2fbe d26e 21be 97e6 b63d 54f8 0bbe
00000120: dd4e 0bbd d190 3d3d dc0a 6bbd f414 3abe
00000130: d664 033e 46fa 9b3d 59df 0c3e e787 4f3d
00000140: be9c 693d 0ece 2cbe 132e e13d f98e bf3c
00000150: 4e9d 82bc 1fb3 fcbd 4d50 313c 3268 29be
00000160: abc2 ffbd fd1a 1d3d fb60 bebb c47e ac3d
00000170: 577a bbbd 664e 3abe 414b 67bd 7dbc e2bd
00000180: 2dd8 adbd d5d2 dc3c 7aad 8d3d 203d ab3d
00000190: 14fd 4d3d dae5 533c ea9a 3f3e bade d1bd
000001a0: 7e23 f8bd f2cd 433e 0777 d3bd 6f74 5a3d
000001b0: 6b85 293b 7362 873d 9360 063e 2b42 22be
000001c0: ac3d 3fbe 2954 b7bd a7d4 c1bc 78ee d83d
000001d0: 9524 853e 2ac0 d83d 57d0 2a3d 06bd 193e
000001e0: 7c1f bf3d 40ad fcbd e11c 64bd 67e3 06be
000001f0: 6a6b 283e 7517 a7bc 7e0c a33d f327 4fbe
00000200: db8e dabd db0e 1fbe f1a6 38be 398e 13bd
00000210: 28e4 03bd 4f7b a1bd 80e2 67bd 0eba 20be
00000220: 9682 533e dc9a 11be be04 033e a45b 6e3d
00000230: 498e 203d 5df5 c73d 2be7 3bbe 0002 e2bd
00000240: fe3b c33d 5881 7ebd 44dd 37be 8352 d73d
00000250: 0106 adbd 32c1 133d 54f1 2fbd 3a53 cab9
00000260: cc9d b6bd 44b6 a9bd 791d 273b f374 91b9
00000270: 6d28 183e 2e51 0f3e 4fd0 87bd 3d9c 2f3e
00000280: 72c6 663e a574 193e 12e3 f73b 0bb9 28be
00000290: 1961 f73d 7337 9bbd 9e99 60bc 1c8a 483d
000002a0: 4aa6 b13d 7cac 0ebe aee7 b23c cfc6 efbd
000002b0: 07c5 223a 7966 8fbd a9cb bb3d 9c26 3ebe
000002c0: 87f1 9d3d bac3 ba3d 22fb b3bd 390b 8e3d
000002d0: f675 c33d bd1c efbd 4b28 f2bc 89a9 523b
000002e0: 54c3 e53d 63cd eebd 181e 853d 1bd5 8d3c
000002f0: a782 82bc 04e3 1d3e b50f 23bd 212f 86be
00000300: 2142 ca3d eb3a 00bd 15fa 823d 09d2 023e
00000310: e6e0 f43c a71e ff3d d9b3 3d3d 0957 863e
00000320: f216 46bb 6a6e 84bd fa57 18be c843 bdbc
00000330: 5706 5c3e 211c 723d f993 f3bc 2475 f93c
00000340: 2632 34bd f78b 59bb 7a98 0fbd a3ed ef3d
00000350: fce1 acbd 10ac 2c3e c1b4 eb3d 2c0c debd
00000360: 0792 a63d 871c a73d b67e 7ebe e719 0fbe
00000370: 82fa 543d a1e6 bf3d 4d04 e63d d500 15be
00000380: 25aa 283e 28d0 443e 3d29 ca3d 1600 173e
00000390: 0969 b1bd 7643 f43c 6a65 1fbe c012 06bd
000003a0: 598f 10be 4df7 193d b600 46be 116c 01bc
000003b0: e25c 1c3e 3af2 883d f195 91bd 3de8 743d
000003c0: 9a43 d43d 0239 3b3d 8f06 2cbe 8fe3 3b3e
000003d0: 170e 903d ba78 cc3d bc43 663e 96f5 3fbe
000003e0: 47f9 e23d 715c 733d d589 643d 6f99 eabd
000003f0: a7aa 2f3d 1a62 703d d612 163c d4a4 91be
-0.025780933 -0.20681077 -0.1348305 -0.13877043 0.04464019 -0.07359953 0.09734126 0.008940021
0.01208695 -0.16035664 0.1053719 0.21361758 -0.23829488 0.101308055 -0.034089033 -0.030827323
0.110347666 -0.18536489 -0.012947417 0.016347071 0.01731201 -0.20070912 0.1412148 -0.09734791
-0.11724786 -0.0896259 -0.05120545 -0.11034377 -0.19263522 -0.090233244 0.000640428 0.036633544
-0.00035854036 -0.10546248 -0.09707962 -0.07971343 0.14002427 -0.02670646 0.014818354 0.040743325
0.15440328 -0.066459075 0.017081233 -0.06954048 -0.12403049 -0.02365682 -0.08455213 0.049512964
-0.04093104 -0.069683805 -0.1457067 0.061357774 -0.21953633 -0.009493491 0.099889345 -0.064648636
-0.0027012948 -0.063780114 0.20786022 0.02662187 0.12246895 -0.07750765 0.13571869 -0.0142657645
0.13060933 -0.1579992 0.12429796 -0.08661832 -0.17161638 -0.15764931 0.089307 -0.13668948
-0.034010757 0.046280686 -0.057383403 -0.18172055 0.12831435 0.07616095 0.13757075 0.050666716
0.057034247 -0.16875479 0.10995116 0.023383604 -0.01594415 -0.12338852 0.010822368 -0.16543654
-0.12488302 0.038355816 -0.005809901 0.08422616 -0.09154194 -0.18193969 -0.056468252 -0.110711075
-0.08488498 0.026956001 0.06917854 0.08361268 0.050290182 0.012933219 0.18711439 -0.1024756
-0.121161446 0.1912153 -0.10325437 0.053333696 0.0025866877 0.066105746 0.13122778 -0.15845554
-0.1867587 -0.08951599 -0.02366097 0.10592359 0.26004472 0.105835274 0.041702595 0.15013513
0.09332177 -0.12337732 -0.055691604 -0.13172685 0.16447225 -0.020396927 0.07961367 -0.20230083
-0.10671779 -0.1553301 -0.18032433 -0.036024306 -0.03220001 -0.078848474 -0.05661249 -0.15695974
0.20655283 -0.1421923 0.12794778 0.058192864 0.039198194 0.09763596 -0.18349902 -0.11035538
0.09532927 -0.06213507 -0.179555 0.10513785 -0.08448411 0.036072917 -0.042954758 -0.0003859045
-0.08916816 -0.082867175 0.0025499745 -0.0002774369 0.14859171 0.13995811 -0.066315286 0.17149444
0.22536638 0.14985903 0.0075649107 -0.16476838 0.12079067 -0.075789355 -0.0137085 0.048959836
0.08674295 -0.13932985 0.02183899 -0.117078416 0.0006209169 -0.07001967 0.091697045 -0.18569416
0.07712083 0.09119363 -0.08788134 0.06935734 0.09543984 -0.11675403 -0.029560229 0.0032144508
0.112188965 -0.11660268 0.064998806 0.01731353 -0.01593144 0.15418631 -0.0398099 -0.26207832
0.09875894 -0.03130619 0.063953556 0.12775435 0.029892396 0.12457018 0.046314094 0.26238278
-0.0030226079 -0.06466372 -0.1487731 -0.02310361 0.21486793 0.059108857 -0.029733645 0.030451365
-0.043993138 -0.0033194998 -0.035057522 0.117152475 -0.084415406 0.16862512 0.115090854 -0.10842165
0.08133321 0.08159738 -0.24853024 -0.13974725 0.051996715 0.09370161 0.11231289 -0.14551099
0.16471155 0.1922003 0.09871147 0.14746127 -0.08662612 0.029817324 -0.1556603 -0.032732725
-0.14117183 0.03758936 -0.19336209 -0.0078993 0.15269807 0.06686826 -0.07108677 0.059791792
0.103644565 0.045708664 -0.16799377 0.18348525 0.070339374 0.09983964 0.22486776 -0.18746027
0.11082702 0.05941433 0.05579551 -0.114550464 0.042887356 0.058687307 0.009159764 -0.28446066

transformer_encoder.dense_proj.0.bias f4 [16]
00000000: f4e7 92bc eca3 3b3d 0f94 01be 1ccb bbbd
00000010: 782b cf3d 9a9d 0d3e 6034 adbb 2fbb ffbd
00000020: f630 153d 1c51 223e 252f 123e f08b b13c
00000030: ec7c ee3d 4897 dabd 8df6 ccbd 0d6e 8ebc
-0.01793287 0.045810625 -0.12654136 -0.091695994 0.10115713 0.13829651 -0.0052857846 -0.12486874
0.036423646 0.15851253 0.14275797 0.021673173 0.11644921 -0.10673386 -0.10007963 -0.01738646

transformer_encoder.dense_proj.2.weight f4 [32, 16]
00000000: 209e 5abc 1470 17be 4a46 0d3e be9d ffbd
00000010: cca8 8c3e 0181 013e fa15 1abe d6af 20be
00000020: 97f7 c53c fc2b a8bd 217c e93d 5459 e4bd
00000030: a885 6ebe d46a adbd 6065 0f3e 6394 573e
00000040: 0915 e03c 637c 2e3e 5068 70be a83b 9c3c
00000050: 52d1 3f3e c926 5f3e 9b8e 74bd 0a80 24be
00000060: b7bb f53c a4c4 f53d 8a3b f43d 709f 61bd
00000070: 2eba cb3d 8f2d a5bd f588 6ebe c8d5 d6bd
00000080: 32a0 3abb 36dd 19bd 393b b3bd 588d 113d
00000090: fc0f 223e 4378 84bc 5dc2 bebd b00f e33d
000000a0: 5fc0 4ebe 928f 3bbb df20 8f3e 100f 11be
000000b0: 583b 82bd 9d8a fe3d 8cf5 333e e0b6 9dbd
000000c0: e19a 82bc 8c6d 223e df7f 79be 2af8 e83d
000000d0: e969 3a3d ac6a 78be 33ec 3abe 12d5 883d
000000e0: 3351 5f3e 3a09 c4bc c4e8 9a3c 80f8 d83d
000000f0: d161 723c 6522 63be c5e0 eabd 10c6 1abe
00000100: d1e4 573e 9e40 d63d 3c40 1f3e e840 763d
00000110: b63e 1fbe 3252 763e 2dd7 c83d f750 da3d
00000120: 2d5f afbd f897 063e 8fa0 dd3d 1003 69be
00000130: 674b cf3c 8e79 7abd d934 213c da5f eb3d
00000140: 5f3f 323e d14a 3b3e 8989 e8bd 9046 6cbe
00000150: efff 303d 318d 3a3e 2ec3 563e e534 e8bd
00000160: 9c3e 2cbe ff2d 7e3e 86ec 8d3e 148b 673e
00000170: eb8b 78be 63e1 1f3e 5326 04be a6ef 903e
00000180: 0318 563e 8382 52bc 856b 5cbe 1aed bf3d
00000190: 3727 ebbd e382 eebd 6e83 46bd 4b10 bebd
000001a0: 30b6 f13c cf57 9c3e fc74 463d a2e9 71be
000001b0: a5ab 4e3e 3164 70be 4d76 95bc def9 193d
000001c0: 8ed9 23be 04a1 3cbe 39f3 a5bc ef8d b33d
000001d0: b5c2 d83d 6314 34bc 691b 483e 8689 80be
000001e0: b140 6dbe e92f 10bd 710f 79be 243e f0bd
000001f0: 25ea 483e fb87 23bb 03b7 2d3d bf22 40be
00000200: a22f c93d da48 263e 34d3 313e a6c5 01be
00000210: 33f2 1e3e ec30 10bd d2db 32be 3915 ddbd
00000220: a0ae 933e a2c2 943d 6ca2 fabd 8896 043d
00000230: e8d1 16be 615e 49be d3ec 143d dcf1 d03d
00000240: b36e a33c f489 a43e e998 5e3d 27b7 99be
00000250: 88b7 35bd df6f 8b3e 9652 56be 7d3b 9e3d
00000260: 2f1d 0d3d b5f4 4a3e 18b5 cc3d 9a72 1f3e
00000270: f2cb f63d 0cc3 8ebd 6f1d 49be 8fa3 3b3e
00000280: b0c8 7fbe ac1d d4bd 9d48 4d3e 28d9 2c3e
00000290: 39a9 eb3d b8a3 4c3e 6d8d 7bbc 3c41 06be
000002a0: f565 80be e615 edbc b651 1b3e a842 7c3e
000002b0: 7f6a 243e bf1c 283e 5797 483a 85de 61bd
000002c0: 894b 693d 3a7a ac3d 244a 29be 9726 8cbd
000002d0: 2f2e 4fbe 3572 e1bd e524 073e 91a1 7fbe
000002e0: ba57 d2bc 402f b4bd be22 0fbe 3248 09be
000002f0: 318d fcbd 2a2d bdbc d2fe 57be eb42 403e
00000300: 0333 53be 59c2 fc3d ec04 36bd c8c1 4f3e
00000310: b059 fa3c e28a 65be 296f 85bd 6e68 be3c
00000320: a38d 1abe c7b2 7abe 6889 743e b84b bf3d
00000330: 41de db3b 9b9c 4b3e 47a8 5b3e 2213 e3bd
00000340: 6bbd cd3d 7496 873e 81fe 0cbe 6dc2 b7be
00000350: f6ae 51bd 612f 94bd b722 66be a122 1fbe
00000360: b314 eebd 3460 2dbe 152d 92be 78e1 76be
00000370: 8e48 16bc c653 85be 2b93 3e3e 66f0 a0bc
00000380: 7099 603e c500 05bd c1ce 70bd 927c 04bd
00000390: 1b53 bc3c 0a1f 393e 8ac2 653d 4116 803d
000003a0: e89f 82bd 4fda 50be 6605 1cbd 26ae 503e
000003b0: 095f 713e 97a7 c13d a095 853d 9a76 09bd
000003c0: ece3 123d 16c2 293e 04fe 84bc 89da 41bd
000003d0: 8a96 193e dc81 cd3d f952 6cbd 2f82 24be
000003e0: e599 063e 7230 5c3e 8b52 c3bd 7696 603e
000003f0: 12ba 8039 bd35 923e c4d8 253e 4a63 22be
-0.013343364 -0.14788848 0.13796344 -0.12481259 0.27472532 0.12646867 -0.15047446 -0.15692076
0.024165912 -0.08211514 0.11400629 -0.111498505 -0.23293173 -0.084676415 0.14003515 0.21052699
0.02735378 0.17039637 -0.23477292 0.019071415 0.18732193 0.21792139 -0.05970631 -0.16064468
0.029996736 0.12000397 0.11925419 -0.055083692 0.0994762 -0.0806533 -0.23294432 -0.10489994
-0.0028476832 -0.03756448 -0.0875153 0.035535187 0.1582641 -0.016170627 -0.093144156 0.110869765
-0.20190571 -0.002861951 0.27954766 -0.14165902 -0.06358975 0.12428782 0.17574137 -0.07700896
-0.015942993 0.15862101 -0.24365185 0.113754585 0.04551116 -0.24259442 -0.18254165 0.06681265
0.21808319 -0.02393018 0.01890982 0.105942726 0.014793829 -0.22181089 -0.11468653 -0.15114617
0.2108338 0.104615435 0.15551847 0.060120493 -0.15551266 0.24054793 0.098066665 0.10659974
-0.08563075 0.13143909 0.1082164 -0.22755075 0.02530451 -0.06115108 0.00983926 0.114928916
0.17406987 0.18290259 -0.11354358 -0.23073792 0.043212827 0.18217923 0.20972893 -0.11338214
-0.16820759 0.24822234 0.27719516 0.22611648 -0.24272124 0.15613322 -0.12905245 0.28307837
0.20907597 -0.012848499 -0.2152539 0.093713954 -0.11482089 -0.116460584 -0.048465185 -0.092804514
0.02950582 0.30535743 0.04845141 -0.2362428 0.20182665 -0.2347572 -0.018244887 0.037591808
-0.1600096 -0.18420798 -0.02025758 0.08767306 0.105840124 -0.010991189 0.19541706 -0.25104922
-0.23169209 -0.03520194 -0.24322297 -0.117306024 0.19620569 -0.0024952877 0.04241086 -0.18763255
0.09823538 0.16238728 0.17365724 -0.12673053 0.15522079 -0.035202906 -0.17466667 -0.107950635
0.28844166 0.07263686 -0.12238011 0.03237012 -0.1472851 -0.19664909 0.036358666 0.10202381
0.019950246 0.321365 0.054345045 -0.30022547 -0.044364482 0.27233788 -0.20929942 0.0772619
0.03445166 0.19819911 0.099954784 0.15571061 0.12050618 -0.06970796 -0.19640134 0.18324111
-0.249789 -0.10357222 0.20047231 0.16879714 0.11506886 0.19984329 -0.015353543 -0.13110822
-0.25077787 -0.028941106 0.15167889 0.24634802 0.1605625 0.16417216 0.0007651946 -0.05514385
0.0569568 0.0842175 -0.16532189 -0.06843298 -0.20232461 -0.110081114 0.13197668 -0.24963976
-0.025676597 -0.08798075 -0.13978097 -0.13406447 -0.123316176 -0.023092825 -0.210933 0.18775527
-0.20624928 0.123417564 -0.044438288 0.20288765 0.030560344 -0.22416261 -0.06515343 0.023243155
-0.15093093 -0.2448226 0.23880541 0.09340614 0.0067098443 0.19883959 0.21450911 -0.11087634
0.10045894 0.26481974 -0.1376896 -0.35890523 -0.051192246 -0.07235599 -0.2247418 -0.15540554
-0.11625042 -0.1693123 -0.2855002 -0.24109447 -0.009172572 -0.26040477 0.18610828 -0.01964588
0.21933532 -0.032471437 -0.058790926 -0.032345362 0.022988847 0.18078247 0.05609373 0.062542446
-0.06378156 -0.20395778 -0.038091086 0.20378932 0.2357141 0.09455793 0.06522679 -0.033560373
0.035861894 0.16577944 -0.016234405 -0.047327552 0.14998832 0.10034534 -0.057696316 -0.16065286
0.13144644 0.21502855 -0.09537228 0.21932396 0.00024552696 0.28556624 0.16195971 -0.15858188

transformer_encoder.dense_proj.2.bias f4 [32]
00000000: 7139 fabd 6423 07bc 9e14 03bd fc22 56ba
00000010: 9fcd 703d bc76 813d dc7b 96bd 3efc 643e
00000020: d2ad ce3d 0c57 89bd 45f2 643e 4c02 2c3c
00000030: 56b4 1cbd d58b f73b bb6f 15be 63dd 5b3d
00000040: 95df 62be 998d 0fbe 0677 d33d f3c9 13be
00000050: 06b8 1f3d 3a25 2d3e b644 0e3e 0347 06be
00000060: b87b 083e 408a 8cbd 3366 393e 1aaf 85be
00000070: 79a8 603d 93c9 01be 88b4 d4bd 402a 6b3e
-0.12217987 -0.008248184 -0.032002084 -0.0008168665 0.058789846 0.06321475 -0.07347843 0.22361848
0.10091747 -0.06706056 0.22358043 0.0104985945 -0.03825792 0.007554511 -0.14593403 0.053677928
-0.22155602 -0.14018859 0.10325436 -0.14432506 0.038993858 0.16908732 0.13893399 -0.13113026
0.13328445 -0.068623066 0.18105392 -0.26110154 0.054848168 -0.1267455 -0.10385996 0.22965336

transformer_encoder.layernorm_1.weight f4 [32]
00000000: 5ba2 813f a34e 843f bf56 7e3f 5c23 823f
00000010: 2899 853f 5ebe 853f 7798 833f 217e 8c3f
00000020: 9e14 793f ea51 803f 006a 833f 6d5b 7e3f
00000030: 5541 843f 6fdd 7f3f 0833 843f 8abf 753f
00000040: 4e4d 7c3f 439a 853f c938 793f 2cda 803f
00000050: 0855 7e3f 3d2f 6c3f d3cd 813f 898a 743f
00000060: f525 813f 0085 833f 3a8e 7d3f f5bb 753f
00000070: 44c5 803f 83d0 703f c05e 883f 0195 8c3f
1.0127672 1.0336498 0.99351114 1.0167041 1.0437365 1.044872 1.0280904 1.0975991
0.97297084 1.0024998 1.0266724 0.99358255 1.0332438 0.99947256 1.0328074 0.9599539
0.9855546 1.0437702 0.9735227 1.0066581 0.993485 0.9225958 1.0140938 0.9552389
1.0089709 1.0274963 0.99045146 0.95989925 1.0060201 0.94068164 1.0653915 1.0982972

transformer_encoder.layernorm_1.bias f4 [32]
00000000: 9a48 18bc b002 953c d0c1 a5bb 3a8d 76bc
00000010: 6dea 113d 3912 e33c 82e5 65bc d1d5 4bbc
00000020: 0c80 17bc 0d3f b03c a1a5 f7bb 90e2 9abc
00000030: 80b6 15bc e994 39bb a7bd 03ba 8881 843b
00000040: b1cf d03b ee94 1f3c c06a d63b 8209 833b
00000050: e4e9 f1bb d532 28bb d897 023b 108a e93c
00000060: 2af8 82bc 312b 85bc c2a4 033b 8dae eabc
00000070: a07b e5bb 388b 4dbc 1e1f d9bc 0b2a 13bb
-0.009294653 0.018189758 -0.0050585046 -0.0150483195 0.035623956 0.02771865 -0.01403177 -0.0124411145
-0.009246837 0.02151444 -0.0075575863 -0.018906862 -0.00913775 -0.0028317517 -0.0005025514 0.0040437616
0.006372415 0.009740097 0.0065434873 0.003998936 -0.0073826183 -0.0025665064 0.0019926932 0.028508216
-0.015987474 -0.016255947 0.0020087217 -0.028647685 -0.0070032626 -0.012545399 -0.026504096 -0.002245548

transformer_encoder.layernorm_2.weight f4 [32]
00000000: acfb 6e3f 8ca6 6f3f be87 733f 53b3 723f
00000010: 35db 753f 896f 723f 82d8 773f 74c9 823f
00000020: 5ae0 863f 7507 723f ab52 7f3f 0d21 753f
00000030: 0e78 993f 3888 8a3f cab9 8b3f ba9a 683f
00000040: 108d 843f 5fbe 873f ceb9 763f 4e26 743f
00000050: f3ea 833f 2a8c 6b3f fb98 763f f9dc 703f
00000060: ee16 6f3f 87e0 723f 4aeb 8c3f 42d3 893f
00000070: 742c 733f 68bf 843f c639 773f cefd 853f
0.9335277 0.93613505 0.95129 0.9480488 0.9603761 0.9470144 0.9681474 1.0217729
1.0537217 0.9454263 0.99735516 0.95753556 1.1989763 1.0822821 1.0916073 0.90861094
1.0355549 1.0604972 0.96377265 0.9537095 1.0306076 0.9201075 0.9632718 0.9408718
0.9339436 0.9487385 1.1009305 1.0767596 0.94989705 1.0370913 0.9657253 1.046808

transformer_encoder.layernorm_2.bias f4 [32]
00000000: 2a2e cdbc 232e 043d ab3d 4cba 94df 4e3d
00000010: 7e15 18bd b04e 3cbd c19c 013b ece8 38bd
00000020: 55be 5bbc 4384 353d 94e1 d0bc 5e05 a4bd
00000030: 3f26 06bc a7e7 85bb 4c90 8f3b 5aae 6cbb
00000040: 2d9d 0c3b e4ab 643c 6cfb 0c3c 37da 37bd
00000050: 1914 d0bb 698a 51bb a7f4 103d 12bc e83c
00000060: 458e 13bd 668e f83c e6ff b0b9 2027 e4bc
00000070: 11de 443d 22bd 4ebc ad89 e73c 0430 dfbb
-0.025046427 0.032270562 -0.00077911717 0.05050619 -0.03712987 -0.04597348 0.001977727 -0.045144007
-0.013412078 0.044315588 -0.025498189 -0.08008836 -0.0081878295 -0.004086453 0.004381215 -0.0036114664
0.0021455989 0.013956998 0.0086048655 -0.04488584 -0.006350052 -0.0031973368 0.03538957 0.028409991
-0.03602435 0.030341338 -0.00033759995 -0.027850688 0.04806334 -0.012618335 0.028263891 -0.006811144

linear.weight f4 [1, 32]
00000000: 5441 293b 8581 c63c 733d acbd 5ff8 44ba
00000010: b786 9b3a b8a2 7aba 4550 9bba 8de3 97bd
00000020: c7e3 5f3e 33ad 013c 7bf8 adbc 680f f3bb
00000030: 8fa8 9ebe fbd4 553e e691 17be 0117 e5bb
00000040: 630d 333e 3670 48be f2b0 88bb 8ce5 81ba
00000050: 95e7 d1bd c1ca 9bbd 80f2 043c 4289 99bd
00000060: 53c8 6a3b c397 9dba 0e10 823e 28b3 55be
00000070: 9e09 1cbb 80ab 123e 2b9b 68ba 6d4e 8f3d
0.0025826292 0.024231682 -0.08410158 -0.0007513817 0.001186571 -0.000956099 -0.0011849484 -0.07416449
0.21864234 0.007914829 -0.021236649 -0.007417608 -0.30987975 0.20882027 -0.1480175 -0.0069912677
0.17485575 -0.19574055 -0.004171484 -0.0009910329 -0.10249249 -0.076070316 0.008114457 -0.07496883
0.003582497 -0.0012023378 0.25402874 -0.20869124 -0.0023809443 0.14323235 -0.00088732195 0.069973804
